deploy/pre_train/xhumanoid/model_2.pt (torch, 144852 bytes, 10 tensors)

hidden_state f4 [1, 1, 64]
0	0x00000000	0.0
1	0x00000000	0.0
2	0x00000000	0.0
3	0x00000000	0.0
4	0x00000000	0.0
5	0x00000000	0.0
6	0x00000000	0.0
7	0x00000000	0.0
8	0x00000000	0.0
9	0x00000000	0.0
10	0x00000000	0.0
11	0x00000000	0.0
12	0x00000000	0.0
13	0x00000000	0.0
14	0x00000000	0.0
15	0x00000000	0.0
16	0x00000000	0.0
17	0x00000000	0.0
18	0x00000000	0.0
19	0x00000000	0.0
20	0x00000000	0.0
21	0x00000000	0.0
22	0x00000000	0.0
23	0x00000000	0.0
24	0x00000000	0.0
25	0x00000000	0.0
26	0x00000000	0.0
27	0x00000000	0.0
28	0x00000000	0.0
29	0x00000000	0.0
30	0x00000000	0.0
31	0x00000000	0.0
32	0x00000000	0.0
33	0x00000000	0.0
34	0x00000000	0.0
35	0x00000000	0.0
36	0x00000000	0.0
37	0x00000000	0.0
38	0x00000000	0.0
39	0x00000000	0.0
40	0x00000000	0.0
41	0x00000000	0.0
42	0x00000000	0.0
43	0x00000000	0.0
44	0x00000000	0.0
45	0x00000000	0.0
46	0x00000000	0.0
47	0x00000000	0.0
48	0x00000000	0.0
49	0x00000000	0.0
50	0x00000000	0.0
51	0x00000000	0.0
52	0x00000000	0.0
53	0x00000000	0.0
54	0x00000000	0.0
55	0x00000000	0.0
56	0x00000000	0.0
57	0x00000000	0.0
58	0x00000000	0.0
59	0x00000000	0.0
60	0x00000000	0.0
61	0x00000000	0.0
62	0x00000000	0.0
63	0x00000000	0.0

cell_state f4 [1, 1, 64]
0	0x00000000	0.0
1	0x00000000	0.0
2	0x00000000	0.0
3	0x00000000	0.0
4	0x00000000	0.0
5	0x00000000	0.0
6	0x00000000	0.0
7	0x00000000	0.0
8	0x00000000	0.0
9	0x00000000	0.0
10	0x00000000	0.0
11	0x00000000	0.0
12	0x00000000	0.0
13	0x00000000	0.0
14	0x00000000	0.0
15	0x00000000	0.0
16	0x00000000	0.0
17	0x00000000	0.0
18	0x00000000	0.0
19	0x00000000	0.0
20	0x00000000	0.0
21	0x00000000	0.0
22	0x00000000	0.0
23	0x00000000	0.0
24	0x00000000	0.0
25	0x00000000	0.0
26	0x00000000	0.0
27	0x00000000	0.0
28	0x00000000	0.0
29	0x00000000	0.0
30	0x00000000	0.0
31	0x00000000	0.0
32	0x00000000	0.0
33	0x00000000	0.0
34	0x00000000	0.0
35	0x00000000	0.0
36	0x00000000	0.0
37	0x00000000	0.0
38	0x00000000	0.0
39	0x00000000	0.0
40	0x00000000	0.0
41	0x00000000	0.0
42	0x00000000	0.0
43	0x00000000	0.0
44	0x00000000	0.0
45	0x00000000	0.0
46	0x00000000	0.0
47	0x00000000	0.0
48	0x00000000	0.0
49	0x00000000	0.0
50	0x00000000	0.0
51	0x00000000	0.0
52	0x00000000	0.0
53	0x00000000	0.0
54	0x00000000	0.0
55	0x00000000	0.0
56	0x00000000	0.0
57	0x00000000	0.0
58	0x00000000	0.0
59	0x00000000	0.0
60	0x00000000	0.0
61	0x00000000	0.0
62	0x00000000	0.0
63	0x00000000	0.0

weight f4 [32, 64]
0	0xbd2f0ad6	-0.042734943
1	0xbec84d36	-0.39121407
2	0xbd6e6fd1	-0.058212105
3	0x3f396869	0.7242494
4	0x3f02f07a	0.5114819
5	0x3eb3d769	0.35125282
6	0xbe376f0b	-0.17913453
7	0xbdc8e84e	-0.098099336
8	0xbe5bfc7a	-0.21483031
9	0xbf501d26	-0.81294477
10	0xbdd986b5	-0.106213965
11	0x3d24944e	0.040180497
12	0x3f19384b	0.5985152
13	0x3e92fe3d	0.28709593
14	0x3e06ab5a	0.13151303
15	0xbe9a0094	-0.30078566
16	0xbee1ca9c	-0.4409989
17	0x3e99ca0c	0.30036962
18	0x3fa6e59f	1.3038825
19	0x3e96e26e	0.29469627
20	0xbe4f2135	-0.20227511
21	0xbec24dee	-0.3795008
22	0x3f4c49cd	0.7980011
23	0xbe61c5db	-0.22048132
24	0xbde2b727	-0.1107009
25	0xbebec980	-0.37263107
26	0xbf46a1fa	-0.77590907
27	0xbab61111	-0.0013890584
28	0xbe4b1b23	-0.1983457
29	0x3e1aa313	0.1510127
30	0x3dda0721	0.10645891
31	0xbf9213e4	-1.141232
32	0x3db4cea7	0.08828478
33	0xbdecef32	-0.115690604
34	0x3ed18272	0.40919834
35	0x3e45be09	0.19310774
36	0xbe15884e	-0.14602777
37	0x3e1bdd0b	0.1522104
38	0x3e43755e	0.19087741
39	0x3eabccbc	0.33554637
40	0x3e838e8c	0.25694692
41	0x3e29906a	0.16558996
42	0xbe1da4ea	-0.15394941
43	0xbe1cc4a5	-0.15309389
44	0x3f920426	1.1407516
45	0xbe014b97	-0.12626491
46	0x3ddcb450	0.107765794
47	0xbe104be2	-0.14091447
48	0xbe910148	-0.2832129
49	0xbee0be2c	-0.4389509
50	0x3f13e09d	0.5776461
51	0xbfc54503	-1.5411686
52	0x3f460809	0.7735601
53	0xbee95671	-0.45573762
54	0x3d808f46	0.06277327
55	0xbeceeb6e	-0.40413994
56	0xbd6e4b38	-0.058177203
57	0x3e9a2fdd	0.30114642
58	0xbf06e323	-0.52690333
59	0xbe0dc3cc	-0.13844222
60	0x3f029406	0.51007116
61	0xbed46069	-0.41479805
62	0x3e191483	0.14949231
63	0xbf16a007	-0.5883793
64	0x3f08d0fe	0.53443897
65	0x3f4d9e1f	0.803194
66	0xbe81c9f6	-0.25349396
67	0x3d991f64	0.074766904
68	0x3e8616f5	0.2618939
69	0xbe3f36ff	-0.18673323
70	0xbf67f6cf	-0.90610975
71	0xbee8f8bd	-0.45502272
72	0xbdaea999	-0.08528442
73	0x3ec09cc2	0.37619597
74	0x3f03f1d1	0.5154086
75	0xbd1dcdf1	-0.03852648
76	0x3eb74691	0.35796025
77	0xbf70741f	-0.93927187
78	0xbec5676e	-0.38555473
79	0x3ec46975	0.38361707
80	0x3e74f2c1	0.23920728
81	0x3dda6108	0.106630385
82	0x3f10f936	0.56630266
83	0x3e18c9bc	0.14920706
84	0xbe2d8b21	-0.16947605
85	0xbe806098	-0.25073695
86	0x3e627c9a	0.22117844
87	0x3f8236e7	1.0173005
88	0x3d760f8d	0.060073424
89	0xbf6c920a	-0.9241034
90	0x3f095655	0.5364736
91	0x3f3f1b4f	0.74651045
92	0x3d51109c	0.05104123
93	0xbea0b639	-0.31389025
94	0xbe99c7f2	-0.3003536
95	0xbefb3422	-0.49063212
96	0xbe554292	-0.20826176
97	0x3e46fb82	0.1943188
98	0xbfae5b7a	-1.3621666
99	0x3f0306af	0.51182073
100	0x3d18a957	0.03727087
101	0x3e9ff637	0.31242535
102	0xbce457b6	-0.027873855
103	0x3e5fa0c6	0.21838674
104	0xbe86ee56	-0.2635371
105	0xbeb0ddcc	-0.34544218
106	0xbf1aa91e	-0.604143
107	0x3ec86c89	0.39145306
108	0x3dae2bf3	0.085044764
109	0xbf093057	-0.53589386
110	0xbe1fabe5	-0.15592916
111	0x3eeefb41	0.46676067
112	0x3fc2112a	1.5161488
113	0x3ebb0fe2	0.36535555
114	0x3f70e3c3	0.94097537
115	0xbdbdcae8	-0.09267217
116	0x3eade0c7	0.33960554
117	0xbe635e04	-0.22203833
118	0x3f2d8211	0.6777659
119	0x3f4a9835	0.791385
120	0xbf8900d2	-1.0703375
121	0xbf688797	-0.90831894
122	0x3ec3d855	0.38250986
123	0xbe77b5a7	-0.24190389
124	0xbe92eca3	-0.28696164
125	0xbe93accc	-0.2884277
126	0x3f0b5b22	0.5443593
127	0x3d9544d2	0.07288517
128	0x3edfb5a6	0.43693274
129	0xbeff9c26	-0.4992382
130	0xbce906a6	-0.028445553
131	0xbce1f9f7	-0.027585013
132	0xbf30fc8c	-0.69135356
133	0xbec2ae4e	-0.3802361
134	0x3eda48da	0.42633706
135	0x3f2ee2e9	0.6831499
136	0x3eda713a	0.4266451
137	0x3e3a9396	0.18220362
138	0xbe9ed2eb	-0.31020293
139	0xbd4ff1af	-0.050767597
140	0x3fb0313a	1.3765023
141	0x3f3b4e59	0.73166424
142	0xbf21d845	-0.63220626
143	0xbf044a34	-0.51675725
144	0x3eac152f	0.33609912
145	0xbdb084d0	-0.08619082
146	0x3f101e71	0.5629645
147	0x3db290eb	0.08719047
148	0xbd32c0f5	-0.04364105
149	0x3e6a4bbe	0.22880456
150	0x3ea730c3	0.3265439
151	0x3fb6293a	1.4231331
152	0xbee9ec05	-0.4568788
153	0xbf4b5ea3	-0.7944128
154	0x3f412288	0.75443316
155	0x3ea39f30	0.31957388
156	0xbec710dc	-0.3888005
157	0x3ebdd30e	0.37075084
158	0xbeb4ed3e	-0.3533725
159	0x3f827712	1.0192587
160	0x3e9efbc0	0.31051445
161	0xbe1f5576	-0.15559945
162	0xbfaf79ed	-1.3709084
163	0x3e97a712	0.29619652
164	0x3f10f8b4	0.5662949
165	0x3ee83d6d	0.45359364
166	0xbe6065df	-0.2191386
167	0x3ea4050c	0.320351
168	0x3dbce2c9	0.09222943
169	0x3ef1e363	0.47243795
170	0x3ce05278	0.027383074
171	0x3d302b1c	0.043009862
172	0x3d8fac7d	0.070153214
173	0xbf9d9365	-1.2310606
174	0xbfd20b02	-1.6409609
175	0xbeb7acab	-0.35873923
176	0x3eb994fb	0.36246476
177	0xbfa18910	-1.2619953
178	0x3e6f6078	0.23376644
179	0x3f35cb06	0.71012914
180	0x3e35c49b	0.1775078
181	0xbe15fb1a	-0.14646569
182	0x3e94f118	0.2909019
183	0x3e51b58c	0.20479411
184	0x3ea163e9	0.31521538
185	0x3f354d42	0.7082101
186	0xbe789dcf	-0.24278949
187	0x3df09dd0	0.1174885
188	0x3e91602c	0.28393686
189	0xbfe47740	-1.7848892
190	0xbd9e11e1	-0.07718254
191	0x3ca942eb	0.020661792
192	0x3effdf16	0.4997489
193	0xbf3423a5	-0.7036689
194	0x3ec002fe	0.37502283
195	0x3ee4d2df	0.44692132
196	0xbe813825	-0.25238147
197	0xbf06b5a6	-0.52620924
198	0xbf94f569	-1.1637393
199	0x3eae1bf9	0.34005716
200	0x3df37a93	0.118886136
201	0x3f1effa5	0.6210883
202	0x3f7fd720	0.9993763
203	0xbf661719	-0.89878994
204	0x3fc2fdc3	1.5233692
205	0x3d751688	0.05983594
206	0xbe22c902	-0.15896991
207	0xbebb12a5	-0.36537662
208	0xbea8e382	-0.32986075
209	0xbf1ee89e	-0.62073696
210	0xbef5632d	-0.47927228
211	0x3c7a30e8	0.015270449
212	0x3acdedfd	0.0015711185
213	0x3efb9dc8	0.49143815
214	0x3eaa6f67	0.33288118
215	0x40107ef0	2.2577477
216	0x3ed911ca	0.42396384
217	0xbfef1855	-1.86793
218	0x3f403176	0.7507547
219	0x3f1345fa	0.5752865
220	0xbd3f0f83	-0.046645653
221	0xbe2fb4a3	-0.17158751
222	0x3e297af1	0.16550805
223	0x3ee50b3d	0.44735137
224	0xbeedecfa	-0.4646986
225	0x3d004a7c	0.031321034
226	0x3e60efb6	0.21966442
227	0x3d414b00	0.047190666
228	0xbf4dbd7b	-0.8036725
229	0xbd744653	-0.05963738
230	0xbe575788	-0.21029484
231	0x3e73d77f	0.23812674
232	0xbeb41c14	-0.35177672
233	0x3d75a78f	0.05997425
234	0xbef962c8	-0.48708177
235	0x3d8b9285	0.06815056
236	0x3e396d32	0.18108061
237	0x3effe41b	0.49978718
238	0xbf76f8e2	-0.96473515
239	0xbc22749b	-0.009915496
240	0x3eb17776	0.34661454
241	0xbf12b3f1	-0.5730582
242	0xbee72c0b	-0.4515079
243	0x3f513be7	0.8173203
244	0x3deb0ee2	0.11477448
245	0x3eb6dbd1	0.35714582
246	0x3f0662e2	0.52494633
247	0x3fb70273	1.4297622
248	0x3f04a73f	0.518177
249	0xbe063cac	-0.13109082
250	0x3f8a1c5e	1.0789907
251	0x3f11d716	0.5696882
252	0xbd194fec	-0.037429735
253	0x3ebba958	0.36652637
254	0x3f2921d1	0.66067225
255	0x3f6a4d44	0.9152415

bias f4 [32]
0	0x3ceba619	0.028765725
1	0x3ea53792	0.3226896
2	0x3c8beccf	0.017080693
3	0xbd8af122	-0.06784274
4	0xbea67c88	-0.32516885
5	0x3e1a5953	0.15073137
6	0xbe08f369	-0.13374104
7	0xbf1920f9	-0.5981594
8	0xbd105a50	-0.03524238
9	0x3d0744ae	0.033024482
10	0x3ea7a89b	0.32745823
11	0x3ea990ac	0.33118188
12	0xbf44de37	-0.7690157
13	0xbe25a55c	-0.16176361
14	0x3ec4c11a	0.38428575
15	0x3e25d670	0.16195083
16	0xbf106a48	-0.5641217
17	0xbe7a1c7e	-0.24424931
18	0xbe85f39a	-0.26162416
19	0xbe1fccac	-0.1560542
20	0x3c0d7c51	0.008635596
21	0x3d13208f	0.035919722
22	0x3dac8a4e	0.08424817
23	0xbeb3a593	-0.3508726
24	0xbf147b8c	-0.5800102
25	0x3ea8fc7f	0.3300514
26	0x3f1bc628	0.6084924
27	0x3e0f7db9	0.14012803
28	0x3e09e659	0.13466777
29	0x3e09a6ba	0.13442507
30	0xbe8d6584	-0.27616513
31	0xbd1652b4	-0.036699966

weight f4 [12, 32]
0	0x3cafaa05	0.021443376
1	0x3f55bdb8	0.8349261
2	0xbf08195d	-0.531637
3	0xbedc53a3	-0.4303256
4	0xbe48f075	-0.19622977
5	0x3f60e4e2	0.8784925
6	0xbf5ccdb8	-0.862514
7	0x3f1ea8a7	0.61976093
8	0x3ef7d63f	0.48405644
9	0x3eeb6258	0.45973468
10	0x3e6af4bf	0.22944926
11	0x3f1d39be	0.6141623
12	0xbf8a1ef3	-1.0790695
13	0xbf36f90a	-0.71473753
14	0x3ee037d5	0.43792596
15	0xbee908b7	-0.4551446
16	0xbe68cf18	-0.2273525
17	0x3d7882cc	0.060671613
18	0x3ed849dd	0.42243853
19	0xbe25c7e1	-0.16189529
20	0x3e4f356f	0.20235227
21	0x3e27e0f6	0.1639441
22	0x3f30a7ec	0.6900623
23	0x3eb66f27	0.35631678
24	0xbe2111f7	-0.1572951
25	0xbe866511	-0.26248983
26	0x3e9d5299	0.3072708
27	0x3f451eff	0.7700042
28	0x3ca73ef6	0.020415764
29	0xbe125edf	-0.14294003
30	0x3de8d5c5	0.11368898
31	0xbe8751d9	-0.26429632
32	0x3cde3c0c	0.027128242
33	0xbe4f1079	-0.20221128
34	0x3d958c42	0.07302143
35	0xbe197a32	-0.1498802
36	0x3e6c4f72	0.23077181
37	0xbcd3b0b7	-0.0258411
38	0xbd9a2c6f	-0.07528006
39	0xbe070007	-0.13183604
40	0x3e10725e	0.14106128
41	0xbf17262f	-0.5904264
42	0x3d75625e	0.059908263
43	0x3e6b0ff6	0.22955307
44	0x3d6c55a1	0.05769885
45	0x3eeddf9e	0.4645967
46	0xbe566eb3	-0.20940666
47	0xbe1de179	-0.15418042
48	0x3dae44ba	0.08509202
49	0xbec91a96	-0.39278096
50	0xbe7f612e	-0.24939415
51	0xbf159c5c	-0.5844171
52	0xbe3cae9f	-0.18425988
53	0x3e265077	0.16241632
54	0x3f346ba1	0.7047673
55	0xbf8febc6	-1.1243827
56	0xbaeddfc0	-0.0018148348
57	0x3e6d527c	0.23175997
58	0x3edc09ea	0.42976314
59	0x3eb57c31	0.35446313
60	0xbeba059d	-0.36332408
61	0xbceee72d	-0.029162968
62	0x3d17b160	0.037034392
63	0xbe54c59f	-0.20778511
64	0x3e9cc43b	0.30618462
65	0xbef4bdbd	-0.4780101
66	0xbf0971e4	-0.5368941
67	0xbca7d671	-0.020487996
68	0xbf2d35ac	-0.6766002
69	0xbeefc36d	-0.46828786
70	0xbebecadf	-0.37264153
71	0x3e88024b	0.2656425
72	0x3d217764	0.0394205
73	0xbe90f085	-0.28308502
74	0x3ed19433	0.4093338
75	0xbeec592e	-0.4616179
76	0xbe14a343	-0.14515404
77	0xbeb15bc2	-0.34640318
78	0x3ecda2d4	0.4016329
79	0xbe832b44	-0.25618947
80	0xbd905638	-0.07047695
81	0xbf1c5ddf	-0.61080736
82	0xbf3eb0bb	-0.7448842
83	0x3d981378	0.07425588
84	0x3ed8eb70	0.42367125
85	0xbede5887	-0.43426916
86	0x3f4ff5f0	0.81234646
87	0x3ef12209	0.4709628
88	0xbe6feaaf	-0.23429368
89	0x3e381dc0	0.17980099
90	0x3f40bf18	0.75291586
91	0x3e542c71	0.20720078
92	0x3e07c977	0.13260446
93	0x3e0596d8	0.13045824
94	0xbeab9bb2	-0.33517224
95	0x3edd59b9	0.43232515
96	0x3e42f012	0.19036892
97	0x3cea42b9	0.028596269
98	0x3efa87b6	0.48931664
99	0x3c06f273	0.008236515
100	0xbf0d6c8d	-0.5524376
101	0xbe33cbbd	-0.17558189
102	0xbe8d8b47	-0.27645323
103	0xbedeb2d6	-0.43495816
104	0x3ee0674e	0.43828815
105	0xbebd8fef	-0.37023875
106	0x3e04d991	0.1297362
107	0xbed0c5c4	-0.40775883
108	0x3ea22e13	0.31675777
109	0x3e585fd9	0.21130313
110	0x3eac85b6	0.33695763
111	0x3e1e9cb4	0.15489465
112	0xbda1d21a	-0.07901402
113	0x3d7ca9b6	0.061685286
114	0x3e2f60e8	0.1712681
115	0x3f4dfca2	0.8046361
116	0xbee1b959	-0.44086722
117	0xbf453ea3	-0.770487
118	0x3bc74523	0.00608124
119	0xbece2734	-0.40264285
120	0xbe5d8605	-0.21633156
121	0xbe91a570	-0.2844653
122	0x3dfb6e40	0.12276888
123	0x3f5b83a2	0.8574773
124	0x3e33a503	0.17543416
125	0x3f48b33b	0.78398484
126	0xbee4d018	-0.44690013
127	0xbee625b9	-0.44950655
128	0xbed4e577	-0.41581318
129	0x3e14f891	0.14547946
130	0xbf04b8f1	-0.518447
131	0x401a8325	2.4142544
132	0xbee6680c	-0.45001256
133	0x3eef0650	0.46684504
134	0xbf360198	-0.7109618
135	0xbe05326f	-0.1300752
136	0x3ede3832	0.4340225
137	0xbca0a4c8	-0.019609824
138	0x3ea5befc	0.32372272
139	0x3e75e343	0.24012475
140	0xbf648593	-0.8926632
141	0x3eb934f0	0.361732
142	0xbf574556	-0.84090173
143	0x3e9093f9	0.28237894
144	0xbf43d71a	-0.76500094
145	0xbe584bdd	-0.2112269
146	0xbf1a5c63	-0.6029722
147	0x3b7066ac	0.003668229
148	0x3c999b82	0.01875091
149	0x3f401940	0.7503853
150	0xbe8b8787	-0.27251837
151	0xbe2da5e3	-0.16957812
152	0x3eec4a5d	0.46150485
153	0x3ea55ec7	0.32298872
154	0xbf5572c6	-0.83378255
155	0xbc7aad71	-0.015300141
156	0x3fa783ab	1.3087057
157	0x3f573b71	0.84075075
158	0xbfb9782a	-1.4489796
159	0x3e6b76ce	0.22994539
160	0xbe026783	-0.12734799
161	0x3f369c1f	0.7133197
162	0xbf0365c9	-0.51327187
163	0x3b0f1c4e	0.002183694
164	0xbec7a614	-0.38993895
165	0xbf46c019	-0.7763687
166	0x3f6c77ad	0.9237011
167	0x3edf65cc	0.43632352
168	0xbe9bdea4	-0.304433
169	0x3d0a9d42	0.03384138
170	0x3f35a5ec	0.709563
171	0x3d4b140c	0.049579665
172	0xbe83dc5e	-0.25754064
173	0xbe9b22bc	-0.30299938
174	0xbf5c5ab0	-0.8607588
175	0xbf932768	-1.1496401
176	0x3e94215f	0.2893171
177	0xbf14aa91	-0.58072764
178	0x3d30593e	0.043053858
179	0xbe8008ed	-0.2500681
180	0xbde92d7d	-0.11385629
181	0x3ee96a77	0.4558904
182	0x3e8d7203	0.27626047
183	0xbf6b14bf	-0.9182853
184	0x3e786d42	0.24260429
185	0xbf9f8007	-1.2460946
186	0xbea130b5	-0.31482473
187	0xbe307ca8	-0.17235053
188	0x3f45fd8b	0.7734
189	0x3e505e03	0.20348363
190	0xbe45b6f4	-0.19308072
191	0x3e806c40	0.25082588
192	0xbdc05b23	-0.09392383
193	0x3e58d32b	0.21174304
194	0xbea014d4	-0.3126589
195	0x3d8b0cbb	0.067895375
196	0xbf4d7e54	-0.80270886
197	0x3f2f5fa2	0.685053
198	0xbad61b90	-0.0016335119
199	0x3f8b60fd	1.0888973
200	0xbe4b597d	-0.19858356
201	0xbd63d169	-0.05561963
202	0xbee9d18d	-0.45667687
203	0xbe1c84e8	-0.15285075
204	0xbf36043d	-0.7110022
205	0x3f221ec1	0.63328177
206	0x3f2f0e29	0.6838098
207	0x3d39cf88	0.045363933
208	0xbea17f3a	-0.3154238
209	0xbf1eb815	-0.61999637
210	0xbe876786	-0.2644617
211	0x3ed14227	0.40870783
212	0x3f682f09	0.9069677
213	0x3e2df19f	0.16986702
214	0x3f57b26e	0.8425664
215	0x3eb45588	0.35221505
216	0x3eabd624	0.33561814
217	0xbecdfbc3	-0.4023114
218	0xbecca20d	-0.39967385
219	0xbf019b30	-0.5062742
220	0xbde28f86	-0.11062531
221	0x3caf4824	0.021396704
222	0x3dc21824	0.09477261
223	0xbe89a4f2	-0.26883656
224	0x3e8e9e79	0.2785528
225	0xbe04b7d8	-0.12960756
226	0x3e146d34	0.14494783
227	0x390cbe92	0.00013422433
228	0x3ed9f76e	0.42571586
229	0x3e4e6436	0.20155415
230	0xbd395f95	-0.04525717
231	0xbe41881a	-0.18899575
232	0xbe149f2f	-0.14513849
233	0x3ee1a3ad	0.44070187
234	0xbe1d411e	-0.15356871
235	0xbe0bcf17	-0.13653217
236	0x3ebb8d3a	0.36631185
237	0xbe2491e4	-0.16071278
238	0xbe47d813	-0.1951602
239	0xbebd8b49	-0.3702033
240	0xbd3bad9b	-0.04581986
241	0xbe9a7e7b	-0.30174622
242	0xbeb22a47	-0.3479788
243	0x3dfe687a	0.12422271
244	0xbd1fe482	-0.03903628
245	0xbd0d6e25	-0.03452887
246	0x3de0949d	0.10965846
247	0xbdc8842f	-0.09790837
248	0x3f2c765e	0.67368114
249	0xbdc4609e	-0.09588741
250	0xbea3c6e4	-0.3198768
251	0xbee42f8f	-0.44567534
252	0xbecf3360	-0.40468884
253	0x3ef2fae2	0.47457033
254	0x3ea7aaba	0.32747442
255	0x3e262b1b	0.16227381

bias f4 [12]
0	0x3f101e82	0.5629655
1	0xbe29d08f	-0.16583465
2	0xbd4b2b39	-0.049601767
3	0x3e52d8e1	0.20590545
4	0xbe22d991	-0.15903307
5	0xbe109b72	-0.14121798
6	0xbde9ea77	-0.11421674
7	0xbe04ee8e	-0.12981626
8	0x3db2ba5a	0.0872695
9	0x3e9bb441	0.3041096
10	0xbe9103a5	-0.28323093
11	0x3f1213e0	0.57061577

weight_ih_l0 f4 [256, 47]
0	0x3f23f705	0.64048797
1	0xbf26d9b8	-0.6517596
2	0x3df0647f	0.11737918
3	0xc014af40	-2.3231964
4	0x3e80d2f8	0.25160956
5	0xbf5f3199	-0.87185055
6	0x3fb234d9	1.3922378
7	0xbf0dcd15	-0.55391055
8	0x3e96917a	0.29407865
9	0xbef263d3	-0.47341785
10	0xbf889949	-1.0671779
11	0x3f95fea0	1.171833
12	0x3f8e3e8e	1.111284
13	0xbf234fa3	-0.6379339
14	0x3f1c3c59	0.61029583
15	0xbfa50798	-1.2892942
16	0xbebeb515	-0.3724753
17	0x3fe64be4	1.799191
18	0x3fa9b72e	1.3259027
19	0x3ec19463	0.37808523
20	0x3e90393b	0.28168663
21	0xbff35b38	-1.9012213
22	0xbf924d3d	-1.1429821
23	0xbf250675	-0.6446298
24	0x3fb61a3e	1.4226758
25	0xbf206b22	-0.6266347
26	0x3fbb2ba1	1.462269
27	0xbf944a75	-1.1585222
28	0xbf2b9d87	-0.6703724
29	0x3f69e808	0.91369677
30	0x3f1d45d2	0.6143466
31	0x3e70af99	0.23504485
32	0xbf11e63a	-0.5699192
33	0x3ed3aaa9	0.4134114
34	0xbe9f1a75	-0.31074873
35	0xbf409c98	-0.75238943
36	0x3f07e633	0.5308563
37	0x3e3e4f09	0.18584837
38	0xbf0de69a	-0.55429995
39	0xbf4fe4e0	-0.8120861
40	0x3f5a2578	0.8521342
41	0xbece1b6d	-0.402553
42	0x3e3fb29b	0.18720476
43	0x3d1ad24d	0.037798215
44	0xbebcc491	-0.36868718
45	0x3dadf54d	0.08494053
46	0xbd9ec814	-0.077530056
47	0xbf8ab81c	-1.0837436
48	0xbdb89bcd	-0.09014092
49	0x3f43cf82	0.76488507
50	0x3f6212c7	0.883099
51	0x3fe5fadf	1.7967185
52	0x3f037fb4	0.51366735
53	0x3e3f433d	0.18677993
54	0x3dccd702	0.10001947
55	0xbf6b37b6	-0.91881883
56	0xbfe93dfd	-1.8222042
57	0xbe49bb55	-0.19700368
58	0x3f864ad0	1.0491581
59	0xbf61988a	-0.8812338
60	0x3fe6b23e	1.8023145
61	0xbf6ba608	-0.9205022
62	0xc056e2da	-3.357596
63	0x3f651990	0.8949213
64	0x3f35145a	0.7073418
65	0xbf0e71b1	-0.5564223
66	0x3fa1a6d8	1.2629042
67	0xbf98728a	-1.1909955
68	0xbf7ea194	-0.994653
69	0xbf176271	-0.59134585
70	0x3deeff0c	0.1166974
71	0x3f98edb7	1.1947545
72	0x3ef7840c	0.4834293
73	0x3f8fa9ea	1.1223729
74	0xbfefed2a	-1.8744252
75	0x3e14c5f7	0.14528643
76	0x3f775fba	0.9663044
77	0x3f32b72c	0.6981075
78	0x3efe2e06	0.49644488
79	0x3ef5ee6a	0.48033458
80	0x3cfd821c	0.03094583
81	0xbe9c43c3	-0.30520448
82	0xbd2d2ad8	-0.042277187
83	0x3ebd7b53	0.3700815
84	0xbe4863a3	-0.19569258
85	0xbe23e348	-0.1600467
86	0xbd5ac6d0	-0.05341226
87	0xbe692efa	-0.22771826
88	0x3df8ff1a	0.12158032
89	0x3e3fb977	0.18723093
90	0xbec61c68	-0.38693547
91	0x3da9fc1b	0.083000384
92	0x3f1fbc05	0.6239627
93	0xbebc380a	-0.36761504
94	0x3e394fd0	0.18096852
95	0xbec33247	-0.38124296
96	0x3db6e4ea	0.08930381
97	0xbf972b40	-1.1810074
98	0x3b9e1f31	0.0048254956
99	0xbd28f566	-0.041249655
100	0x3e0e9e6a	0.13927618
101	0x3b313bb4	0.0027043642
102	0x3f891d23	1.0712017
103	0xbf0bd96a	-0.5462862
104	0xbf8cb343	-1.0992206
105	0xbffdc9a1	-1.9827157
106	0xbe88d6cc	-0.26726377
107	0x3f15c2d9	0.5850044
108	0xbe9bc3e1	-0.3042288
109	0xbf79887b	-0.9747388
110	0xbf80516e	-1.002485
111	0xbfa7c427	-1.3106736
112	0x3f6670ff	0.9001617
113	0x3e04408f	0.12915252
114	0x3cdaa3d0	0.02668944
115	0x3f29dcc7	0.66352504
116	0xbe6029c6	-0.21890935
117	0xbf82dbb8	-1.0223303
118	0xbd2c7547	-0.042104032
119	0xbe24c669	-0.16091312
120	0xbcf9856e	-0.030459132
121	0xbf331649	-0.6995588
122	0xba538ca4	-0.00080699683
123	0xbf371479	-0.71515614
124	0x3f464509	0.7744909
125	0x3e865144	0.26233876
126	0x3db27850	0.08714354
127	0xbc8e0b33	-0.017339325
128	0x3dbfb26b	0.093602024
129	0x3e9d7661	0.30754378
130	0xbe6cd0a6	-0.23126468
131	0xbcf98c0d	-0.03046229
132	0x3cd415ca	0.025889296
133	0xbe0d428e	-0.1379492
134	0xbdeace84	-0.11465171
135	0x3e38b715	0.1803859
136	0xbc85540b	-0.016275426
137	0x3cd43d72	0.025908206
138	0xbc0f7c56	-0.008757671
139	0x3e27a530	0.16371608
140	0xbe9a5cdc	-0.3014897
141	0xbfa0b403	-1.2554935
142	0x3d87c241	0.06628848
143	0x3fd7b056	1.6850688
144	0x3f2079ac	0.62685657
145	0x3fae61c3	1.3623585
146	0x3e98dc21	0.29855445
147	0xbf07c352	-0.5303241
148	0x3f496bc1	0.78680044
149	0x3ef2cb6a	0.47420818
150	0x3ee86950	0.45392847
151	0x3f31aee5	0.6940749
152	0xbf90c951	-1.1311437
153	0xbf4916e9	-0.78550583
154	0xbebc1574	-0.36735117
155	0x3f4cab66	0.79949033
156	0x3e8b6978	0.27228904
157	0x3dfcea3e	0.12349366
158	0xbf422d8d	-0.75850755
159	0x3f050fd6	0.5197729
160	0x3e99212e	0.29908127
161	0x3ecba0cd	0.3977112
162	0xbf1502dd	-0.58207494
163	0x3fad77fa	1.3552239
164	0xc0580660	-3.375389
165	0xbfc187dc	-1.5119586
166	0x403b259f	2.9241712
167	0xbeea489f	-0.4575853
168	0xbdbe5df2	-0.092952624
169	0xbf5b9018	-0.85766745
170	0xbfaf6e2d	-1.3705498
171	0x3f8f71d7	1.1206616
172	0xbe5e731c	-0.21723598
173	0xbd9a6b2d	-0.075399734
174	0x3eae9c9c	0.34103858
175	0x3e417e8b	0.18895929
176	0xbe13af9b	-0.14422457
177	0x3e61c254	0.22046787
178	0xbef05671	-0.4694095
179	0x3e4f2578	0.20229137
180	0xbd9e631d	-0.07733748
181	0x3f2f00e6	0.68360746
182	0xbdc8bf8e	-0.09802161
183	0x3d5e7841	0.0543139
184	0xbe176816	-0.147858
185	0x3e30c7a1	0.17263652
186	0x3e880a05	0.26570144
187	0xbeef4931	-0.46735528
188	0x3fe5c5b7	1.7950963
189	0xbf2c765e	-0.67368114
190	0xbee6ec46	-0.45102137
191	0xbefa66c1	-0.4890652
192	0xc017c085	-2.3711255
193	0xbe40bcd4	-0.18822032
194	0xbe2c182d	-0.16806097
195	0x3e38c780	0.18044853
196	0xbf13527a	-0.57547724
197	0x3fd72548	1.6808252
198	0x3eba4618	0.36381602
199	0xbf5d507c	-0.86450934
200	0x3da78201	0.08179093
201	0xbd173797	-0.03691825
202	0xbe9dfc00	-0.30856323
203	0xbf4457ad	-0.7669628
204	0xc00086af	-2.0082204
205	0xc055f768	-3.3432255
206	0x3e3937f6	0.18087754
207	0xbe8142e3	-0.25246343
208	0xbe73e4ee	-0.23817798
209	0x3ff6873c	1.926002
210	0x3e15a81d	0.14614911
211	0x3fac8f7e	1.348129
212	0x3e8501ed	0.25978032
213	0x3e9fa292	0.3117872
214	0xbd49eaaf	-0.049296077
215	0x3e4f6282	0.20252421
216	0x3f2c1611	0.6722117
217	0xbf8efc22	-1.1170695
218	0x3f2faea2	0.68625844
219	0x3f446a3f	0.7672462
220	0xbdc4f4d5	-0.096170105
221	0xbe809fa9	-0.2512181
222	0xbecc7dfa	-0.39939862
223	0xbcfc6c58	-0.030813381
224	0x3e037e37	0.12841116
225	0xbd606067	-0.054779436
226	0x3d9f1353	0.07767358
227	0x3cc7ce41	0.024390342
228	0x3d610963	0.054940592
229	0xbe52b8c3	-0.20578294
230	0xbe972d84	-0.29526913
231	0xbe392c91	-0.18083407
232	0x3dc88bac	0.09792265
233	0x3eb30ae5	0.3496925
234	0xbde8b080	-0.1136179
235	0x3e83b461	0.25723556
236	0x3f3eaa39	0.7447849
237	0x3d5a3582	0.053273685
238	0xbec846be	-0.39116472
239	0xbd943f4d	-0.07238636
240	0xbefd4fcb	-0.4947494
241	0xbf9d8c9d	-1.2308537
242	0xbf150107	-0.5820469
243	0xc0084d8f	-2.1297338
244	0x3fcf8e04	1.6215215
245	0xbf649cb8	-0.89301634
246	0x3f04d44b	0.51886433
247	0x3f05a696	0.52207315
248	0x3eab5332	0.3346191
249	0x3f0e2129	0.5551935
250	0x3f9a4e74	1.2055192
251	0xbf4f6ad0	-0.8102236
252	0xbf3f77dc	-0.74792266
253	0x3faeeafe	1.3665464
254	0x3f41762b	0.75570935
255	0xbfb3b42a	-1.4039357

weight_hh_l0 f4 [256, 64]
0	0xbcd2f6ee	-0.02575251
1	0xbfa6fae6	-1.3045318
2	0x3ec8e779	0.392391
3	0x3f23ce9a	0.63987124
4	0xbca254a3	-0.019815749
5	0xbf458cf7	-0.7716822
6	0xbee8d8d4	-0.45477927
7	0x3f6ac17c	0.91701484
8	0xbf37ab86	-0.717461
9	0xbe4ad888	-0.19809163
10	0x3fbd836d	1.4805733
11	0xbfec7969	-1.8474551
12	0xbf89815f	-1.0742606
13	0x3f86812d	1.0508171
14	0x3ced97f3	0.02900312
15	0x3f3a2a79	0.7272106
16	0x40075bf2	2.114987
17	0xbf47fb7f	-0.7811813
18	0x3f960744	1.1720967
19	0xbfbcb52b	-1.4742788
20	0x3e1115c5	0.1416846
21	0x3f3b61a9	0.7319589
22	0x3edde781	0.43340686
23	0xbf5a360a	-0.8523871
24	0x400e50e2	2.2236867
25	0xbfc57f4c	-1.5429473
26	0xbeacdc68	-0.33761907
27	0x3fa2ef7e	1.2729337
28	0x3e699fec	0.22814912
29	0x3d2c279a	0.042029954
30	0x3fe3c673	1.7794937
31	0xbf3ba247	-0.7329449
32	0xbe786ea5	-0.24260958
33	0x3ea30c43	0.31845292
34	0xbf17b283	-0.5925676
35	0xbeac95d1	-0.3370805
36	0x3eb7cdb9	0.3589914
37	0x3e2726bb	0.16323368
38	0xbfa62a7b	-1.2981714
39	0x3fa977f5	1.3239733
40	0xbfbd86f0	-1.4806805
41	0x3f149232	0.58035576
42	0x3f29c79a	0.6632019
43	0x3e1d5d96	0.15367731
44	0x3f52c48e	0.8233117
45	0x3f93ff3b	1.1562265
46	0x3fd4eb67	1.6634339
47	0x3efe8b18	0.49715495
48	0xbf8ab09d	-1.0835148
49	0x3f231ca7	0.63715595
50	0xbf83299b	-1.0247072
51	0xbfdbe970	-1.7180614
52	0xbe8fb788	-0.2806971
53	0x3eb61776	0.35564774
54	0x3e851bb1	0.2599769
55	0x3f378a33	0.7169525
56	0x3ecf246e	0.4045748
57	0xbef786f3	-0.48345146
58	0x3fb4d09f	1.4126166
59	0xbf045984	-0.5169909
60	0x3fced518	1.6158781
61	0xbf64e0c8	-0.8940549
62	0x3ef888ec	0.48541963
63	0x3f15a000	0.58447266
64	0xbdfe745f	-0.1242454
65	0xbebbfc47	-0.3671591
66	0x3d90c777	0.07069295
67	0xbf6730ad	-0.9030865
68	0xbef942aa	-0.48683673
69	0x3f48a7fb	0.7838132
70	0xbf81fd42	-1.0155413
71	0xbf998599	-1.1993896
72	0x3d5fb346	0.054614328
73	0xbe3b884b	-0.1831371
74	0xbfa344b9	-1.2755347
75	0xbfb4edfb	-1.4135126
76	0xbea34fec	-0.31896913
77	0xbfc73447	-1.5562829
78	0x3fa96b44	1.323586
79	0x3fad84e2	1.3556178
80	0xbcd0f2d3	-0.025506413
81	0x40091c68	2.1423588
82	0xbfdf8591	-1.7462636
83	0xbf0f7a85	-0.56046325
84	0x3f053d7f	0.5204696
85	0x3ff46022	1.9091837
86	0xbedd9307	-0.43276235
87	0xbf13b1f5	-0.57693416
88	0xbf95df4c	-1.170877
89	0xbeeef7b4	-0.46673357
90	0xbf667a97	-0.9003081
91	0x3d4c24c6	0.049839757
92	0x3f81238a	1.0088971
93	0x3ee06451	0.43826535
94	0x3f15b325	0.5847648
95	0x3fe6c5c2	1.8029101
96	0x3e8d9ffb	0.27661118
97	0xbfa3cb7f	-1.2796477
98	0x3eef5f32	0.46752316
99	0x3eb53e94	0.35399306
100	0xbf5e39d3	-0.8680698
101	0x3c6179bd	0.013761935
102	0xbf2f35cb	-0.68441457
103	0x3dbd5de7	0.09246426
104	0xbf68f209	-0.90994316
105	0xbec92a29	-0.39289978
106	0x3df0e2e7	0.11762028
107	0xbeb433e8	-0.3519585
108	0x3ecc9e57	0.39964554
109	0x3ec691b1	0.3878303
110	0xbd5029de	-0.050821178
111	0x3f3fecdc	0.74970794
112	0xbf3c9f81	-0.73680884
113	0x3f93f1db	1.1558183
114	0x3f8a32e8	1.0796785
115	0x3f8d2d42	1.1029437
116	0xbf034d85	-0.5129016
117	0x3f3a8e07	0.72872967
118	0x3f431d51	0.7621661
119	0xbf05c102	-0.5224763
120	0x3ed0366c	0.4066652
121	0x3f822574	1.016768
122	0x3f9015e3	1.1256679
123	0x3ff94637	1.9474553
124	0x3e8dab6d	0.2766985
125	0xbebfc626	-0.37455863
126	0xbf833282	-1.0249789
127	0xbf3819d3	-0.71914405
128	0xbf032fc2	-0.5124475
129	0xbf5dd9ef	-0.86660665
130	0x3f1f46b7	0.6221728
131	0xbe52a48d	-0.20570584
132	0xbec8a79a	-0.3919037
133	0x3eeb05e7	0.4590294
134	0x3eae28da	0.34015542
135	0xbe812437	-0.25222942
136	0xbdb97d60	-0.090571165
137	0xbe7329f6	-0.23746476
138	0x3ec150fe	0.37757105
139	0xbd0ace8b	-0.03388838
140	0xbf8316d8	-1.0241346
141	0x3d395d06	0.04525473
142	0x3d7f77d0	0.06237012
143	0x3d04cb9c	0.03242074
144	0x3d1dbae9	0.03850833
145	0x3e853c11	0.2602239
146	0xbe0876ae	-0.13326523
147	0xbe233755	-0.15939076
148	0xbd2d46b1	-0.042303745
149	0x3e67ea53	0.22647981
150	0xbdd77669	-0.10520632
151	0xbfb5b2a7	-1.4195145
152	0xbdcb8cb2	-0.09938945
153	0x3f37e111	0.718278
154	0x3ec37bef	0.3818049
155	0x3c1e9cd9	0.00968095
156	0x3ec7614d	0.38941422
157	0xbeb50e7e	-0.3536262
158	0x3da63432	0.08115424
159	0x3f41c5df	0.7569255
160	0xbede98ee	-0.4347605
161	0x3e1558f7	0.14584719
162	0x3de5e11e	0.11224578
163	0x3ed1c057	0.40967056
164	0xbe8f3641	-0.2797108
165	0xbe42c044	-0.19018656
166	0xbecc7c57	-0.39938614
167	0x3f7853fd	0.97003156
168	0x3dabd45d	0.083901145
169	0xbe5f0db7	-0.21782576
170	0xbe79fee4	-0.2441364
171	0xbed18ceb	-0.40927824
172	0xbe5514c0	-0.20808697
173	0xbdef9a50	-0.11699355
174	0x3f4b7de6	0.7948898
175	0xbd33981a	-0.043846227
176	0x3f1c8349	0.61137825
177	0xbe803c83	-0.25046167
178	0xbf6a7725	-0.9158805
179	0xbe8f05a1	-0.27933982
180	0xbe1acd92	-0.15117481
181	0x3f086f03	0.5329439
182	0x3f5882a1	0.84574324
183	0xbf44dc5d	-0.7689875
184	0x3e965c08	0.2936709
185	0xbcab261a	-0.020892192
186	0x3ebbc78a	0.36675674
187	0xbf0ca8ac	-0.5494487
188	0x3e43b327	0.1911131
189	0xbf06bd45	-0.5263255
190	0xbf0949d2	-0.53628266
191	0xbe1e2256	-0.15442786
192	0xbf825367	-1.0181702
193	0xbfa42256	-1.2822978
194	0xbf812d87	-1.0092019
195	0xbe623916	-0.22092089
196	0x3ec5f028	0.38659787
197	0x3f6c2f87	0.9226002
198	0xbe53e157	-0.20691429
199	0xbf80bd95	-1.0057856
200	0xbf52d014	-0.8234875
201	0xbf6e633c	-0.9312017
202	0xbf00ff2c	-0.5038936
203	0x3f0344e2	0.5127698
204	0xbee0ba5b	-0.43892178
205	0x3f54dc77	0.831489
206	0xbf565e0e	-0.83737266
207	0xbf359b25	-0.70939857
208	0x3e89ad3a	0.26889974
209	0xbf7a0c0f	-0.9767465
210	0xc0328a74	-2.7897005
211	0xbee2c6db	-0.4429234
212	0x3e803012	0.25036675
213	0x3fa0bf5a	1.2558396
214	0x3f592568	0.848227
215	0xbf1712f7	-0.59013313
216	0x3e81e0a1	0.2536669
217	0x3ef0eaca	0.4705413
218	0xbef1d7da	-0.47234994
219	0xbe4b425e	-0.19849536
220	0x3f4c293e	0.7975043
221	0x3f461f89	0.7739187
222	0xbfdc06c6	-1.7189567
223	0x3f26694d	0.65004426
224	0xbf627923	-0.8846609
225	0xbf886aa7	-1.0657548
226	0x3f57b18b	0.84255284
227	0x3ebd714a	0.37000495
228	0xbdb8e864	-0.090287
229	0x3f99efe8	1.2026339
230	0x3f761238	0.9612155
231	0x3ae34d6a	0.0017341797
232	0xbe63e10c	-0.22253817
233	0x3cd1e425	0.025621483
234	0xbf52fcfb	-0.8241727
235	0xbea8f8f1	-0.33002427
236	0xbf8ba05b	-1.0908312
237	0x40117a04	2.2730722
238	0xbed8637a	-0.42263395
239	0xbfc4e7d1	-1.5383245
240	0xbfaa5c3e	-1.33094
241	0x3f715d2b	0.9428279
242	0x3e11e7c0	0.14248562
243	0xbe698dd9	-0.22808017
244	0xbd713bd4	-0.058894947
245	0xbda9e897	-0.08296316
246	0xbc8b2020	-0.016983092
247	0x3edf8fd1	0.4366441
248	0x400d5178	2.2080975
249	0xbeb4eebb	-0.35338387
250	0x3dec5ca8	0.1154111
251	0x3e5745b7	0.21022688
252	0xbd11e3f7	-0.035617795
253	0x3fbe3ee0	1.4862938
254	0xbf78a873	-0.97132033
255	0xbdd50442	-0.10401203

bias_ih_l0 f4 [256]
0	0x3f86aaa9	1.0520831
1	0xbe856bd7	-0.26058838
2	0xbebd97d9	-0.37029913
3	0xbe81dd41	-0.25364116
4	0x3e457b95	0.19285424
5	0x3e75c6c2	0.24001601
6	0xbf27450b	-0.65339726
7	0xbf16db31	-0.5892821
8	0xbe3ff83a	-0.18747035
9	0xbe8aa0ca	-0.27075797
10	0x3e1dd1c6	0.15412053
11	0xbd75824e	-0.05993872
12	0xbf419cb7	-0.7562975
13	0xbf21cde7	-0.6320481
14	0xbf0e782c	-0.5565212
15	0x3e8a9233	0.27064666
16	0x3db60118	0.08886927
17	0x3ccb0386	0.024781954
18	0x3e9646da	0.2935093
19	0xbe936e2f	-0.28795
20	0xbed15084	-0.4088174
21	0x3eb42a0d	0.35188332
22	0x3d1830e2	0.037155993
23	0xbe60da47	-0.21958266
24	0x3ed8d6b3	0.42351303
25	0xbea31347	-0.31850645
26	0x3df9b282	0.12192251
27	0x3eaf031b	0.34182057
28	0xbdc6ea69	-0.09712679
29	0xbe96e91c	-0.29474723
30	0x3dd603fc	0.10449979
31	0xbd55ddb7	-0.052213397
32	0x3d1ed90b	0.038781207
33	0x3df6f793	0.1205894
34	0xbf434620	-0.7627888
35	0xbe9d27c6	-0.30694407
36	0xbf0914d7	-0.53547424
37	0x3f4614ef	0.7737569
38	0xbd8f3e03	-0.0699425
39	0xbca21731	-0.01978645
40	0xbea33061	-0.31872848
41	0x3db36717	0.08759897
42	0x3f0ced82	0.5504991
43	0xbd4e7749	-0.050406728
44	0xbeaeca3a	-0.34138662
45	0xbed0f3fb	-0.40811142
46	0x3f333a9d	0.7001131
47	0x3dd32018	0.10308856
48	0x3f96db87	1.1785744
49	0xbc56b5f6	-0.013104906
50	0xbdb49347	-0.088171534
51	0xbe2787d2	-0.16360405
52	0x3e4a1ff6	0.19738755
53	0x3ea4e912	0.3220907
54	0xbcd253a8	-0.025674656
55	0xbe40e7c1	-0.18838407
56	0x3e72a358	0.23695123
57	0xbe668a2e	-0.22513649
58	0x3eec86bd	0.46196547
59	0xbe9a6f25	-0.30162922
60	0xbcc17cc5	-0.023619065
61	0xbf24c3e3	-0.643614
62	0xbdce34f7	-0.10068696
63	0xbec88be8	-0.3916924
64	0xbf050483	-0.5196001
65	0xbeb08a78	-0.34480643
66	0xbeffafbe	-0.49938768
67	0x3e92c8d6	0.2866885
68	0xbf88c83f	-1.068611
69	0x3eaa683d	0.33282652
70	0xbf6d15aa	-0.9261118
71	0xbf01a404	-0.50640893
72	0xbeef2960	-0.46711254
73	0xbf8d3815	-1.103274
74	0x3f355f56	0.70848596
75	0xbf48717c	-0.78298163
76	0x3b9c49ea	0.0047695534
77	0xbf062896	-0.5240568
78	0xbfab678b	-1.3390974
79	0xbf09e254	-0.53860974
80	0xbf073dd0	-0.52828693
81	0xbf808dd6	-1.0043285
82	0x3e280e2b	0.16411655
83	0xbdbd2b93	-0.09236827
84	0x3e20e352	0.15711716
85	0xbda45bed	-0.08025346
86	0xbf200918	-0.62513876
87	0x3e333baa	0.17503229
88	0xbe627340	-0.22114277
89	0xbe8155c5	-0.2526075
90	0xbed2fb0e	-0.41207165
91	0xbea37b9e	-0.3193025
92	0xbe0342d7	-0.12818466
93	0xbf1d2f85	-0.61400634
94	0xbedf2cc0	-0.4358883
95	0xbf8b23f0	-1.0870342
96	0xbd81dac8	-0.06340557
97	0x3d9824d3	0.07428899
98	0x3df694e2	0.12040116
99	0xbb52e75b	-0.0032181356
100	0x3e51c40a	0.20484939
101	0xbe8f3f76	-0.27978104
102	0xbee8cec9	-0.45470265
103	0xbf87f4a4	-1.0621533
104	0x3e776386	0.24159059
105	0xbf045a43	-0.5170023
106	0xbe67e591	-0.22646166
107	0xbfc2f390	-1.5230579
108	0xbf92ceae	-1.1469324
109	0xbded2323	-0.115789674
110	0xbdc86015	-0.09783951
111	0xbf90c2b6	-1.1309421
112	0xbe197d5d	-0.14989229
113	0xbf616ae5	-0.88053733
114	0xbeaf0a2d	-0.3418745
115	0x3e2ce111	0.16882731
116	0x3de44eca	0.1114784
117	0x3f66c99b	0.90151376
118	0xbf12b986	-0.57314336
119	0xbf8804bb	-1.0626444
120	0xbf8e2c2f	-1.1107234
121	0xbe07e491	-0.13270785
122	0xbe73a1c0	-0.23792171
123	0xbe134ef7	-0.14385591
124	0xbf7f928e	-0.99833
125	0x3da003c6	0.0781322
126	0xbdafc971	-0.08583344
127	0xbf20f1cd	-0.6286896
128	0xbf673cfb	-0.90327424
129	0xbef175eb	-0.47160277
130	0x3d6517d7	0.05593094
131	0xbda42a58	-0.08015889
132	0xbf0cddf8	-0.550262
133	0x3eee9348	0.46596742
134	0x3e290ba5	0.16508348
135	0x3e5c0aeb	0.2148854
136	0xbe2efc57	-0.17088448
137	0x3e70b490	0.23506379
138	0xbf30020b	-0.6875312
139	0xbe13c6f8	-0.1443137
140	0xbeb39718	-0.35076213
141	0xbdced35b	-0.100989066
142	0xbf9ef3e5	-1.2418181
143	0x3ef52550	0.4788003
144	0xbf380b18	-0.7189193
145	0xbf60d277	-0.87821144
146	0xbe83e37c	-0.25759494
147	0xbef2989f	-0.47382066
148	0xbeac1779	-0.33611658
149	0x3e219597	0.1577972
150	0xbe62453c	-0.22096723
151	0xbec2e7bc	-0.38067424
152	0x3e79a444	0.24379069
153	0xbc843369	-0.016137796
154	0x3f038cb0	0.5138655
155	0x3ead04ad	0.3379263
156	0x3df39433	0.11893501
157	0xbf0d33ec	-0.5515735
158	0x3f089113	0.53346366
159	0x3f41bccd	0.7567871
160	0x3f171716	0.590196
161	0x3ea319e2	0.31855685
162	0xbedd83d4	-0.4326464
163	0x3ccfbce7	0.02535863
164	0x3d2d8310	0.04236132
165	0x3eeb45e6	0.45951766
166	0xbe9777b3	-0.2958351
167	0x3e717568	0.23579943
168	0xbe02a594	-0.12758476
169	0x3f026806	0.5093998
170	0xbb6f1a12	-0.0036484045
171	0x3f1ba77e	0.6080245
172	0xbd6d26ae	-0.057898216
173	0x3c2bbdac	0.010482233
174	0x3f938085	1.1523596
175	0x3d1d94c7	0.038471963
176	0x3f453571	0.7703467
177	0x3e61644d	0.22010918
178	0x3ec26121	0.37964728
179	0x3d3e95e6	0.046529673
180	0x3f4f812a	0.81056464
181	0x3f09c391	0.53814036
182	0xbdae8da2	-0.08523108
183	0xbf891ea0	-1.0712471
184	0xbedb0e44	-0.4278432
185	0xbea056bb	-0.3131617
186	0xbe2b2e90	-0.16716981
187	0xbbd47c92	-0.0064845765
188	0xbed41053	-0.41418704
189	0x3e9cdbd7	0.30636474
190	0xbe857f61	-0.26073745
191	0xbdace389	-0.084418364
192	0xbedc04e0	-0.4297247
193	0x3e9ad39b	0.30239567
194	0x3e67612a	0.22595659
195	0xbf5999c9	-0.8500028
196	0xbea84904	-0.32868207
197	0xbec41ad4	-0.38301718
198	0x3f52ef6a	0.82396567
199	0xbf288e79	-0.65842396
200	0x3f246551	0.64217097
201	0xbf4f6788	-0.8101735
202	0xbed30b98	-0.41219783
203	0xbed45eb1	-0.41478494
204	0xbf2cc4fa	-0.6748806
205	0xbf56304b	-0.8366744
206	0x3e8f2954	0.27961218
207	0xbb14ee23	-0.0022724948
208	0xbeb4a952	-0.3528543
209	0xbdfa2b40	-0.122152805
210	0xbf84440f	-1.033327
211	0xbe07d4af	-0.13264726
212	0x3e50183b	0.20321743
213	0x3cf292b9	0.029610978
214	0xbe0daa3b	-0.13834469
215	0x3df17907	0.11790662
216	0xbddc7678	-0.107647836
217	0x3eb45215	0.35218874
218	0x3d9f69a8	0.07783824
219	0xbea0fd14	-0.31443083
220	0xbe7ee1a6	-0.24890766
221	0x3f9315e1	1.1491052
222	0x3c1903f6	0.009339323
223	0xbec99d7a	-0.39377958
224	0x3ec77716	0.38958043
225	0xbe140d02	-0.14458087
226	0xbefd5ae6	-0.49483413
227	0x3dd058af	0.10173165
228	0xb9caf6ae	-0.00038712233
229	0xbee9be98	-0.45653224
230	0x3e84c9c7	0.25935194
231	0x3f899cf8	1.0751028
232	0x3e4abca1	0.19798519
233	0x3d1dfcfb	0.03857134
234	0xbec01907	-0.37519094
235	0x3cdc330b	0.026879808
236	0x3ec305f8	0.3809049
237	0x3e48a79c	0.19595188
238	0xbefca980	-0.49348068
239	0xbe61e8ab	-0.22061412
240	0xbea3378f	-0.31878325
241	0x3ea9b9b5	0.33149496
242	0xbf9cc008	-1.2246103
243	0xbf0d815e	-0.55275524
244	0xbccd9ed3	-0.025100147
245	0x3ecb13ea	0.3966363
246	0xbf0ff845	-0.56238204
247	0xbe2bc758	-0.16775262
248	0xbecdba3e	-0.40181154
249	0x3e2a07a8	0.16604483
250	0xbf4fa2f1	-0.81108004
251	0xbe83e90b	-0.25763735
252	0x3fe32d99	1.774829
253	0xbed8cb9d	-0.42342845
254	0x3e4f373b	0.20235913
255	0xbf19625f	-0.5991573

bias_hh_l0 f4 [256]
0	0x3f7ee5a9	0.99569184
1	0xbe83dfdb	-0.25756726
2	0xbeba47ab	-0.36382803
3	0xbe9962a2	-0.29958063
4	0x3df0973c	0.11747596
5	0x3eb67e1e	0.35643095
6	0xbf12f9b3	-0.5741226
7	0xbeeff532	-0.46866757
8	0xbe765ef8	-0.24059665
9	0xbea3e3d6	-0.32009763
10	0x3e8e59ac	0.2780279
11	0xbd978afb	-0.07399555
12	0xbf32f881	-0.69910437
13	0xbf362606	-0.7115177
14	0xbed54fa4	-0.41662323
15	0x3ea7dce3	0.3278571
16	0x3d1b3240	0.03788972
17	0x3e1d6df0	0.15373969
18	0x3e7355d5	0.23763211
19	0xbe9d3858	-0.3070705
20	0xbea6deb2	-0.32591778
21	0x3eb05917	0.3444297
22	0x3dba994a	0.09111269
23	0xbe42adc7	-0.19011603
24	0x3eff1430	0.4982009
25	0xbebc667a	-0.36796933
26	0x3d667553	0.056264233
27	0x3eaa61f2	0.3327785
28	0xbd06e8c5	-0.03293683
29	0xbe5a7a1a	-0.2133564
30	0xbd4e1dab	-0.050321262
31	0xbd91f963	-0.07127645
32	0xbd94d0f9	-0.07266421
33	0x3ea2a948	0.31769776
34	0xbf390ca7	-0.7228493
35	0xbe26634c	-0.16248816
36	0xbf1936f6	-0.5984949
37	0x3f1e6e15	0.6188672
38	0xbd6af4bc	-0.057362303
39	0xbe06a140	-0.1314745
40	0xbe58d6f5	-0.2117575
41	0x3e88b14e	0.26697773
42	0x3eb96c2a	0.36215335
43	0xbdee0736	-0.11622469
44	0xbea844ea	-0.32865077
45	0xbf097f54	-0.5370991
46	0x3f26cd87	0.6515736
47	0x3d74218e	0.059602313
48	0x3f8733b2	1.0562651
49	0x3d564b5f	0.052317973
50	0x3d8d944d	0.06913052
51	0xbe8b6242	-0.27223402
52	0x3e279a46	0.16367444
53	0x3eb81c10	0.3595891
54	0x3ce008cb	0.027347943
55	0xbd2abaaf	-0.04168194
56	0x3ddae21f	0.106876604
57	0xbea286b7	-0.31743404
58	0x3ea36705	0.31914535
59	0xbed7c7ce	-0.42144626
60	0xbd70aad6	-0.05875667
61	0xbf242a2d	-0.64126855
62	0xbb80f03b	-0.0039348877
63	0xbec92314	-0.39284575
64	0xbf20d993	-0.6283199
65	0xbe98ab59	-0.29818228
66	0xbee5700b	-0.44812045
67	0x3e5e9abe	0.21738717
68	0xbf5dd6ce	-0.8665589
69	0x3f10b782	0.5653001
70	0xbf74d5a5	-0.95638496
71	0xbf2e88b9	-0.6817737
72	0xbeadc448	-0.33938813
73	0xbf842a5f	-1.0325431
74	0x3f6b86e4	0.920027
75	0xbf3fb369	-0.74883133
76	0xbe4b208b	-0.19836633
77	0xbf3ec942	-0.74525845
78	0xbf95bc97	-1.1698178
79	0xbf1baa7f	-0.6080703
80	0xbf20c7e8	-0.6280503
81	0xbf821db5	-1.0165316
82	0x3e18037b	0.14845078
83	0xbe052c6e	-0.1300523
84	0x3de2c520	0.11072755
85	0xbe132f08	-0.1437341
86	0xbf096ed5	-0.5368474
87	0x3ea0c9fb	0.314041
88	0xbd999680	-0.07499409
89	0xbe52cd7c	-0.20586199
90	0xbef32ef8	-0.47496772
91	0xbea1ce8c	-0.31602895
92	0xbd6d29bd	-0.057901133
93	0xbf1dfcb7	-0.6171374
94	0xbec69eca	-0.3879302
95	0xbf5b03e7	-0.8555283
96	0xbddbbfec	-0.107299656
97	0xbd694ae8	-0.0569562
98	0x3e15b304	0.1461907
99	0xbe1dbef5	-0.15404876
100	0x3ea49453	0.32144412
101	0xbe9c7824	-0.3056041
102	0xbf14d3eb	-0.5813586
103	0xbf7779ac	-0.9667003
104	0x3ead2b22	0.3382197
105	0xbee69183	-0.45032892
106	0xbe72760f	-0.23677848
107	0xbfb1d935	-1.3894411
108	0xbf8edaea	-1.1160557
109	0xbd581ad9	-0.05275998
110	0xbd2d8040	-0.042358637
111	0xbfa2cf80	-1.2719574
112	0xbe14652f	-0.14491723
113	0xbf822f07	-1.0170602
114	0xbecbd1de	-0.39808553
115	0x3e03b3ef	0.12861608
116	0x3d46b38d	0.048511077
117	0x3f6a2926	0.9146904
118	0xbed3a1ce	-0.41334385
119	0xbfa4ca9c	-1.2874331
120	0xbf88bbf6	-1.0682361
121	0xbd787ef2	-0.06066794
122	0xbba235b5	-0.00495025
123	0xbe5bb386	-0.21455202
124	0xbf7e4391	-0.9932185
125	0x3db53bca	0.088492945
126	0xbd44ae9d	-0.048018087
127	0xbf293f08	-0.66111803
128	0xbf5c8bf5	-0.8615106
129	0xbe82c372	-0.25539738
130	0x3c82d78e	0.015971925
131	0xbdd67451	-0.10471404
132	0xbeb326e6	-0.34990615
133	0x3e881416	0.26577824
134	0x3e6f2aa9	0.23356117
135	0x3eac0ebc	0.3360499
136	0xbeb3f239	-0.3514574
137	0x3d9d7039	0.076874204
138	0xbf225abf	-0.6341972
139	0xbe852b56	-0.26009625
140	0xbe3757e0	-0.17904615
141	0xbe5d4af1	-0.21610619
142	0xbfae08c9	-1.3596431
143	0x3e8c5a0a	0.27412444
144	0xbf2b3d3e	-0.66890323
145	0xbf4b5f18	-0.79441977
146	0xbe2a0fef	-0.1660764
147	0xbf073c0d	-0.52826005
148	0xbe924365	-0.28567043
149	0x3dc26d91	0.094935544
150	0xbd9060f8	-0.07049745
151	0xbe9d2a7e	-0.3069648
152	0x3e7d1185	0.24713714
153	0xbe20f336	-0.15717778
154	0x3ea63acc	0.32466733
155	0x3eb20c95	0.34775224
156	0x3e7168dc	0.23575157
157	0xbf03dc42	-0.5150796
158	0x3ed96c81	0.42465594
159	0x3f2a9c42	0.6664468
160	0x3ecc5878	0.39911246
161	0x3e9b9e34	0.30394137
162	0xbef072d0	-0.46962595
163	0xbe1afa4d	-0.15134545
164	0xbda125b9	-0.07868523
165	0x3edf5bfe	0.43624872
166	0xbeae27e1	-0.340148
167	0x3e4f2676	0.20229515
168	0xbe8198d7	-0.2531192
169	0x3f0609da	0.5235878
170	0x3ddfca72	0.10927285
171	0x3f197f64	0.5996001
172	0xbd21e082	-0.039520748
173	0xbb0ca286	-0.0021459176
174	0x3f93acba	1.1537087
175	0x3caaa51f	0.020830689
176	0x3f552d93	0.83272666
177	0x3e38399e	0.17990729
178	0x3e9f5aab	0.31123862
179	0xbd706fe1	-0.058700446
180	0x3f4f74e8	0.8103776
181	0x3f370786	0.71495855
182	0xbe6563d2	-0.2240136
183	0xbf8b49b3	-1.0881866
184	0xbea1a6c4	-0.31572545
185	0xbe97e956	-0.2967021
186	0xbd1edf70	-0.038787305
187	0x3ddfa78b	0.10920628
188	0xbe9a74c1	-0.301672
189	0x3dc8337b	0.09775444
190	0xbeb0e354	-0.34548438
191	0x3da7705b	0.08175727
192	0xbe8e7fbd	-0.27831832
193	0x3eb05077	0.3443639
194	0x3e8de9db	0.2771748
195	0xbf56beda	-0.83884966
196	0xbe862a6a	-0.26204234
197	0xbec329f9	-0.3811796
198	0x3f6c6d20	0.9235401
199	0xbf308492	-0.68952286
200	0x3f1a62ca	0.6030699
201	0xbf4b9f95	-0.7954038
202	0xbea963cf	-0.3308396
203	0xbec9d74e	-0.39422077
204	0xbf0128b6	-0.50452745
205	0xbf7766b1	-0.9664107
206	0x3ec0b8d7	0.37641022
207	0xbddd91f9	-0.10818858
208	0xbec1acb1	-0.37827066
209	0xbe00d7ff	-0.12582396
210	0xbf665599	-0.8997436
211	0x3d88145a	0.06644507
212	0x3ed15d1b	0.40891346
213	0xbdcddce4	-0.10051897
214	0xbe3786f2	-0.17922571
215	0xbd6583f2	-0.056034036
216	0xbe11957b	-0.14217179
217	0x3e41fa65	0.18943174
218	0xbce69c5b	-0.028150728
219	0xbec172dd	-0.37782946
220	0xbe9c45e7	-0.3052208
221	0x3f932e83	1.1498569
222	0xbd32cc44	-0.043651834
223	0xbee55837	-0.44793865
224	0x3f146a46	0.5797466
225	0xbe521bd4	-0.20518428
226	0xbf194c42	-0.59881985
227	0x3e5dbec2	0.216548
228	0x3c16b73c	0.00919896
229	0xbed91928	-0.42402005
230	0x3ef38649	0.4756339
231	0x3f874195	1.0566889
232	0x3e431db8	0.19054306
233	0x3cee2f50	0.029075295
234	0xbf152674	-0.582618
235	0xb9de6e8b	-0.000424255
236	0x3ec4deff	0.38451383
237	0x3ea8093f	0.32819554
238	0xbebab904	-0.3646928
239	0xbdcf8b8a	-0.10134037
240	0xbeb57a6e	-0.3544497
241	0x3e82a399	0.2551544
242	0xbf85200e	-1.0400407
243	0xbf1dc94e	-0.6163529
244	0xbd5871ec	-0.05284302
245	0x3efc24f1	0.49246934
246	0xbf0c52b9	-0.54813725
247	0xbe44d078	-0.1922015
248	0xbf06ff77	-0.5273356
249	0x3db09f69	0.08624155
250	0xbf6797bc	-0.90465903
251	0xbec3d416	-0.38247746
252	0x3fe22f6a	1.767072
253	0xbebb6f6c	-0.36608446
254	0x3e5d480e	0.21609518
255	0xbf11bdc0	-0.5693016
