deploy/pre_train/xhumanoid/model_1.pt (torch, 144852 bytes, 10 tensors)

hidden_state f4 [1, 1, 64]
000000 00 00 00 00 00 00 00 00 00 00 00 00 00 00 00 00
       0.0 0.0 0.0 0.0
000010 00 00 00 00 00 00 00 00 00 00 00 00 00 00 00 00
       0.0 0.0 0.0 0.0
000020 00 00 00 00 00 00 00 00 00 00 00 00 00 00 00 00
       0.0 0.0 0.0 0.0
000030 00 00 00 00 00 00 00 00 00 00 00 00 00 00 00 00
       0.0 0.0 0.0 0.0
000040 00 00 00 00 00 00 00 00 00 00 00 00 00 00 00 00
       0.0 0.0 0.0 0.0
000050 00 00 00 00 00 00 00 00 00 00 00 00 00 00 00 00
       0.0 0.0 0.0 0.0
000060 00 00 00 00 00 00 00 00 00 00 00 00 00 00 00 00
       0.0 0.0 0.0 0.0
000070 00 00 00 00 00 00 00 00 00 00 00 00 00 00 00 00
       0.0 0.0 0.0 0.0
000080 00 00 00 00 00 00 00 00 00 00 00 00 00 00 00 00
       0.0 0.0 0.0 0.0
000090 00 00 00 00 00 00 00 00 00 00 00 00 00 00 00 00
       0.0 0.0 0.0 0.0
0000a0 00 00 00 00 00 00 00 00 00 00 00 00 00 00 00 00
       0.0 0.0 0.0 0.0
0000b0 00 00 00 00 00 00 00 00 00 00 00 00 00 00 00 00
       0.0 0.0 0.0 0.0
0000c0 00 00 00 00 00 00 00 00 00 00 00 00 00 00 00 00
       0.0 0.0 0.0 0.0
0000d0 00 00 00 00 00 00 00 00 00 00 00 00 00 00 00 00
       0.0 0.0 0.0 0.0
0000e0 00 00 00 00 00 00 00 00 00 00 00 00 00 00 00 00
       0.0 0.0 0.0 0.0
0000f0 00 00 00 00 00 00 00 00 00 00 00 00 00 00 00 00
       0.0 0.0 0.0 0.0

cell_state f4 [1, 1, 64]
000000 00 00 00 00 00 00 00 00 00 00 00 00 00 00 00 00
       0.0 0.0 0.0 0.0
000010 00 00 00 00 00 00 00 00 00 00 00 00 00 00 00 00
       0.0 0.0 0.0 0.0
000020 00 00 00 00 00 00 00 00 00 00 00 00 00 00 00 00
       0.0 0.0 0.0 0.0
000030 00 00 00 00 00 00 00 00 00 00 00 00 00 00 00 00
       0.0 0.0 0.0 0.0
000040 00 00 00 00 00 00 00 00 00 00 00 00 00 00 00 00
       0.0 0.0 0.0 0.0
000050 00 00 00 00 00 00 00 00 00 00 00 00 00 00 00 00
       0.0 0.0 0.0 0.0
000060 00 00 00 00 00 00 00 00 00 00 00 00 00 00 00 00
       0.0 0.0 0.0 0.0
000070 00 00 00 00 00 00 00 00 00 00 00 00 00 00 00 00
       0.0 0.0 0.0 0.0
000080 00 00 00 00 00 00 00 00 00 00 00 00 00 00 00 00
       0.0 0.0 0.0 0.0
000090 00 00 00 00 00 00 00 00 00 00 00 00 00 00 00 00
       0.0 0.0 0.0 0.0
0000a0 00 00 00 00 00 00 00 00 00 00 00 00 00 00 00 00
       0.0 0.0 0.0 0.0
0000b0 00 00 00 00 00 00 00 00 00 00 00 00 00 00 00 00
       0.0 0.0 0.0 0.0
0000c0 00 00 00 00 00 00 00 00 00 00 00 00 00 00 00 00
       0.0 0.0 0.0 0.0
0000d0 00 00 00 00 00 00 00 00 00 00 00 00 00 00 00 00
       0.0 0.0 0.0 0.0
0000e0 00 00 00 00 00 00 00 00 00 00 00 00 00 00 00 00
       0.0 0.0 0.0 0.0
0000f0 00 00 00 00 00 00 00 00 00 00 00 00 00 00 00 00
       0.0 0.0 0.0 0.0

weight f4 [32, 64]
000000 3e 9c 48 be 7e 9d b0 be 2e 70 a1 3c a0 08 25 bd
       -0.19590852 -0.34495157 0.019706812 -0.04029143
000010 ad b1 00 bd 60 cd 73 bf 85 b8 4c be 57 3c a7 3e
       -0.031419445 -0.9523525 -0.19992264 0.32663223
000020 05 9e 76 c0 4f 5b e7 bd d8 bb 14 bf 64 00 82 3c
       -3.8533947 -0.112967126 -0.58099127 0.015869327
000030 46 68 27 3f eb 07 3f bf a4 70 31 be fa fe 8e 3e
       0.65393484 -0.74621457 -0.17328125 0.27928907
000040 7e 0d a1 bd 04 aa 19 be ac c4 c4 3e 16 7d 5c bf
       -0.078639016 -0.15006262 0.384313 -0.86128366
000050 e5 d1 f1 be e6 5f 35 3f 4e 92 8e 3e 1f e5 94 bf
       -0.4723045 0.70849454 0.27845997 -1.1632422
000060 76 66 9c 3e 53 e9 e9 bd 46 44 45 3f 34 3e 68 bc
       0.30546921 -0.11421456 0.770573 -0.014174987
000070 50 14 de 3c 68 34 53 3e c0 78 f8 3e b1 0e 5c be
       0.027109295 0.2062546 0.48529625 -0.2148998
000080 9b 39 37 bf ad ab 94 3f a1 bb 5b bf 97 a1 08 3e
       -0.71572274 1.1614891 -0.85833174 0.13342892
000090 34 89 1d bf 6c 94 f9 3e e8 56 79 3e e4 1f 22 3e
       -0.6153748 0.4874605 0.24349558 0.15832478
0000a0 e6 a2 84 be b5 6b 60 be d3 cc b7 be d5 da a6 3e
       -0.25905532 -0.21916087 -0.35898456 0.3258883
0000b0 f3 f7 84 3e 5e 95 19 bf 1f c0 fd bd e7 2f f5 bc
       0.2597042 -0.5999354 -0.1239016 -0.029930068
0000c0 e5 86 5c 3e ae 18 53 be 60 97 6e bd 6f 76 1c bf
       0.21535833 -0.20614883 -0.05824983 -0.61118215
0000d0 9b 24 6b 3e b0 02 33 3f 20 c7 95 3d d6 35 59 3f
       0.22963183 0.69925976 0.07313371 0.8484777
0000e0 c0 36 7d be 7a 2d 9d 3e 2b bb f9 3d bd 30 65 3c
       -0.24727917 0.30698758 0.121939026 0.013988671
0000f0 cd 6e 0f be f2 ad 2e bf 96 26 f0 be f2 28 17 3f
       -0.14007111 -0.6823417 -0.4690444 0.5904685
000100 cb b3 03 bb 8b fd bc be 84 bd c2 be 67 f8 7d be
       -0.0020096179 -0.36912188 -0.38035214 -0.24801789
000110 e4 23 ce 3c cf f0 bb be ac e0 1c 3f 64 8f ba 3e
       0.025163598 -0.3670716 0.6128032 0.36437523
000120 3d 33 08 bf 21 3b b5 bd 58 a6 53 bf d0 f0 ad 3e
       -0.53203183 -0.088491686 -0.82675695 0.33972788
000130 4a d2 c1 3d 87 5c 44 bf c5 38 3a 3f 3b cd 5a bf
       0.094639376 -0.76703686 0.72742873 -0.85469407
000140 d9 e5 7d bf 94 1b 55 bf 9f 58 c6 be 2c 5a a1 bf
       -0.99178845 -0.83245206 -0.38739488 -1.2605643
000150 b7 2d a3 3e c0 82 e1 3e bf 89 98 be ea ab aa bd
       0.31870815 0.44045067 -0.29792592 -0.08333571
000160 28 61 ec bd f8 6b 47 bd 07 ed 01 40 d7 2a 9a be
       -0.115419686 -0.04868695 2.030092 -0.3011081
000170 7d 07 af 3c 1d 89 ad 3d dd fc 42 bf e0 37 00 3d
       0.021365875 0.08473418 -0.7616709 0.031303287
000180 4d 65 4e bd a0 4f 20 3f ea 3a af bf c1 38 84 be
       -0.050389577 0.626215 -1.3689854 -0.2582455
000190 34 04 44 3e d4 94 57 bf 54 11 44 3d 06 e0 a8 bf
       0.19142228 -0.8421147 0.047868088 -1.3193367
0001a0 7b 9c 67 3c 76 8b 54 bf 34 2b fd 3e a9 af 45 3e
       0.014136429 -0.830253 0.49447024 0.1930529
0001b0 22 2b 96 3e 39 f5 f8 3e 02 2e 9c 3e a0 d5 4e 3f
       0.29329783 0.4862459 0.3050385 0.80794716
0001c0 db e4 83 bc 70 b6 05 3e 56 8f c6 be fa c9 2a 3f
       -0.016100338 0.13057876 -0.38781232 0.6671444
0001d0 27 e9 1b bf d5 ee a5 bf 81 f9 94 3e 5b 6a 80 3f
       -0.6090264 -1.2963511 0.29096606 1.0032457
0001e0 cb 18 59 3e 57 a7 2b bf 17 b1 a1 3e 97 7b 54 be
       0.21200864 -0.67052215 0.3158042 -0.20750271
0001f0 a0 39 7f 3e ee 3d 9f be a4 d3 f1 3e 90 93 ac 3f
       0.24924326 -0.31101936 0.4723178 1.3482533
000200 93 12 27 3f d7 a7 d0 bd 81 82 70 3f 24 e1 1f 3e
       0.65262717 -0.10188263 0.93949133 0.15613228
000210 e0 22 04 3f 06 29 61 bb 95 16 f2 3e 62 39 a3 3e
       0.51615715 -0.0034356727 0.47282854 0.31879717
000220 4e d4 b8 3f 2d d7 b4 be f3 4e 84 bf 78 7b a3 bd
       1.443979 -0.35320416 -1.0336593 -0.07982534
000230 b9 73 49 bd 38 87 f1 3e 0d ab e2 3d c1 03 05 3f
       -0.049182627 0.47173476 0.110677816 0.51958853
000240 fb 99 4b be 08 9b f6 be 2f b3 52 3f d9 24 02 bf
       -0.19882958 -0.48165154 0.8230466 -0.50837475
000250 ce 89 0e 3f ee 31 99 be 70 23 81 3e b3 86 01 3f
       0.55679023 -0.29920906 0.2522235 0.5059616
000260 2e 09 30 3c 51 d6 91 bd 03 92 3d 3f 0a 82 68 be
       0.010744376 -0.07120956 0.7405092 -0.22705856
000270 0a cb 56 3d 3a d2 11 be 0a ba 76 3f 90 2e 3b 3e
       0.052439727 -0.14240351 0.96377623 0.18279481
000280 1b 51 4e bf e0 e8 d3 3e fa 38 2e 3f 07 7e 8c be
       -0.8059251 0.41388607 0.6805569 -0.274399
000290 64 b5 2c bf f7 0f c1 be 6f e4 5c bf d2 5e 1a be
       -0.6746428 -0.37707493 -0.8628606 -0.15075234
0002a0 16 80 04 bf 45 4a 81 be 08 9c 9e bd 64 30 ef bd
       -0.51757944 -0.25251976 -0.07744604 -0.11679152
0002b0 e9 18 16 3f 0a c0 82 3e 91 22 7a be 3e 39 32 bf
       0.5863176 0.2553714 -0.24427249 -0.69618595
0002c0 fd e9 49 bd 1a f5 6b be 43 d1 99 bf 85 45 b0 3d
       -0.049295414 -0.23042718 -1.2016987 0.0860701
0002d0 b3 a4 a4 be 05 1d 3c bc 31 05 98 bf 17 f4 9e 3e
       -0.32156906 -0.011481528 -1.1876584 0.310456
0002e0 81 c5 04 3f e4 11 b9 3f ac 67 fb be 63 02 02 be
       0.5186387 1.4458585 -0.49102533 -0.12696223
0002f0 c5 d7 6d be 1c c9 e1 3e ea f8 60 bf d4 08 77 be
       -0.23226841 0.44098747 -0.8787981 -0.24124461
000300 09 14 7c bf a6 79 88 bf 32 f0 cf 3f a0 48 c8 3e
       -0.9846807 -1.0662124 1.6245177 0.39117908
000310 a3 19 1c 3e 37 ad 36 be 51 07 42 bf 1c 16 d3 3e
       0.15244155 -0.17839514 -0.75792414 0.41227806
000320 05 d5 e3 bd 2f ca c7 3f f1 e4 96 3e 9a 02 8d be
       -0.111246146 1.5608577 0.29471543 -0.27541047
000330 17 bb 2c 3f c9 b0 d0 be 69 54 42 bf 01 6e 3f 3e
       0.67472976 -0.40759876 -0.7591005 0.18694307
000340 93 08 03 3f 2b a9 31 bd 7a 73 00 3f d2 f1 c9 3e
       0.5118496 -0.04337422 0.50176203 0.39442307
000350 49 1f a5 3d 34 6b 9e bd 44 5d cc be af 74 85 3a
       0.08062608 -0.07735291 -0.39914906 0.0010181869
000360 fa 90 1c 3f 74 20 21 be ef 2a 14 3f b6 dc f1 be
       0.61158717 -0.15735036 0.5787801 -0.47238702
000370 a7 c4 ad 3e c5 b2 c5 3e 2f 95 f3 be 4d 77 cd 3d
       0.33939096 0.38612953 -0.47574756 0.100325204
000380 f1 5f 6b 3e 4d ee a6 be b2 f9 17 3d af 38 6d bf
       0.22985817 -0.32603684 0.037103362 -0.9266462
000390 8d 98 38 bf 2c 65 4c be 1e 96 5d be 9c 95 15 bf
       -0.72107774 -0.19960469 -0.21639296 -0.5843141
0003a0 1e a6 0c 3e 5f 41 b5 3e b1 46 fa 3e 8f 47 8e be
       0.13735244 0.35401437 0.48882058 -0.2778897
0003b0 53 06 7b 3d d9 21 86 3c 23 89 2e 3e 34 fd 48 3f
       0.061285328 0.016373562 0.17044501 0.7851136
0003c0 76 f7 e9 3c e3 6f b8 be c5 5f 9b 3f 1d ae 04 c0
       0.028560381 -0.36022863 1.2138602 -2.073127
0003d0 7e 71 be 3d 5b 8e ad be 37 7f 1e 3f 25 30 9e 3d
       0.09298991 -0.3389767 0.61912864 0.077240266
0003e0 a2 1a 0c 3f 3f f8 13 bf 2f bd 78 bf 08 81 2a bd
       0.5472814 -0.5780067 -0.9716367 -0.04162696
0003f0 8f 1d 25 3e 69 b2 86 be 50 92 94 bb d4 76 9a 3d
       0.16124557 -0.2630799 -0.0045340434 0.07542196

bias f4 [32]
000000 38 cb 93 bd f5 c0 aa be e1 59 63 3d 06 10 44 be
       -0.07216495 -0.3335034 0.055505637 -0.19146737
000010 e4 0e 93 bd 92 ba 81 be f3 df fd bd 46 68 cb 3e
       -0.071805745 -0.25337654 -0.123962305 0.39727992
000020 c6 8c 36 3d 1f ab a9 3d c1 ef b3 be 0e 66 9f bd
       0.044567846 0.08284592 -0.35143855 -0.07783137
000030 ca 49 2f 3e 0d 28 92 be bc 53 84 3e 03 1c 96 3e
       0.17117992 -0.2854618 0.25845134 0.29318246
000040 f1 72 ae be 03 fe 1a be a3 5f cf 3d 7e fb 14 be
       -0.34072068 -0.1513596 0.10125663 -0.14549062
000050 45 0f 1d bf 75 fa fc be 29 3c 92 be 8d e0 8f 3d
       -0.61351424 -0.49409834 -0.28561524 0.070252515
000060 1d ce ed bd c3 07 ac 3e b3 d1 5f be 2c ee 8f 3e
       -0.116115786 0.33599672 -0.21857338 0.28111398
000070 39 c1 b8 be eb ca ef 3d a4 9f dc 3b df e3 0b 3e
       -0.36084917 0.117086254 0.006732898 0.13661145

weight f4 [12, 32]
000000 61 05 0c 3e f5 d5 a5 be 28 a4 1d 3e e9 47 fd be
       0.13673927 -0.323898 0.15394652 -0.49468926
000010 b3 c1 56 3e a4 25 a8 3e 2f e5 b7 be 54 98 e8 3e
       0.20972328 0.32841218 -0.3591704 0.45428717
000020 63 15 20 3e 92 b7 83 3e ee 89 a2 bd 48 9e 4f 3e
       0.15633158 0.2572599 -0.07936464 0.20275223
000030 58 0d 4d be 0c 9d b7 be 5b 56 93 be 6d 13 e8 bd
       -0.20024621 -0.35862005 -0.28776821 -0.1133183
000040 1a 0e 0e bf 75 7c 25 bf d1 24 32 be d7 0e da be
       -0.5549027 -0.6464303 -0.17396857 -0.42589447
000050 9d 29 9b 3d 4f 80 91 3e 78 c1 b5 3d 70 29 6b 3e
       0.075762965 0.28418204 0.08874792 0.22965026
000060 ec 98 47 3e 61 b3 ab 3e c0 3e 0e bf 4d 8b b1 3e
       0.19491929 0.33535293 -0.555645 0.3467659
000070 b3 cf 3a bd 22 a6 27 be ae b2 89 be 99 02 88 3f
       -0.045608234 -0.16371968 -0.26894134 1.0625793
000080 c1 2d 94 bd 80 82 3e 3e ed 8a bf bd 0c 71 a1 be
       -0.07235289 0.1860447 -0.0935267 -0.3153156
000090 9f 26 54 3e 53 76 b0 be 10 1f 09 bf aa ee 5b 3c
       0.20717858 -0.34465274 -0.5356302 0.013423601
0000a0 14 fa 28 3d 31 68 cd 3e 47 de c9 3e 19 c4 6f 3e
       0.041254118 0.40118554 0.39427397 0.23414649
0000b0 bc ac 06 3d 8b d1 a9 3b b5 5c 15 bd 4b af f7 3c
       0.032879576 0.00518245 -0.036465365 0.030234953
0000c0 b7 5f 3c be f8 5c b0 3c 48 09 de bd 67 06 84 be
       -0.18395887 0.021528706 -0.10841614 -0.25786135
0000d0 d0 87 8a 3e 6c a8 95 3e e5 3c b5 3e cb 60 f9 bc
       0.27056742 0.29230058 0.3539802 -0.030441662
0000e0 ba 42 17 3e 46 bb 8b 3e 6d 40 c1 bd 89 47 36 be
       0.14771548 0.27291316 -0.09436116 -0.17800726
0000f0 e2 f7 23 3e e7 ef f4 3d 94 e2 71 3e a3 19 32 bf
       0.16012529 0.1195982 0.23621589 -0.6957037
000100 62 1e 67 be 91 ce c9 3d 88 2e c3 be 43 7c 11 3e
       -0.22570184 0.098538525 -0.38121438 0.14207558
000110 a4 3d 0a 3e 42 d3 51 bd a0 2f 95 bd ca 44 6a be
       0.13500077 -0.05122686 -0.072844744 -0.22877803
000120 49 cf 8d be 5b a6 3a be c8 0a eb be ae f0 c1 3d
       -0.2769721 -0.18227522 -0.45906663 0.09469734
000130 e7 2b ea be f1 9f 83 bc 36 d2 4b 3e 87 db 1e bf
       -0.4573662 -0.016067477 0.19904408 -0.6205372
000140 4c 6d cb be 08 51 b1 be d3 9d df be d3 97 ed bd
       -0.39731824 -0.34632134 -0.43675098 -0.11601224
000150 3c 8a 32 3f c2 94 b3 bd a0 99 92 bd 38 0a f9 bd
       0.6974218 -0.08768608 -0.07158208 -0.12160152
000160 b0 a7 eb be 99 9a 3f bd 1d e9 b9 3d ab e6 db 3e
       -0.46026373 -0.046778295 0.09077666 0.42949423
000170 4e b5 27 3f c4 63 13 be 03 1a de 3e 08 4e e6 3e
       0.65511024 -0.14393526 0.4337922 0.44981408
000180 f1 f1 0b bd 20 16 8c b9 70 34 87 3e a9 d5 01 bf
       -0.03416628 -0.00026719365 0.26407194 -0.50716645
000190 df b5 80 3e ee b1 fd be 9d 59 c0 be 7f d1 61 3e
       0.25138757 -0.49549812 -0.3756837 0.22052573
0001a0 54 43 09 3b 8d 0a 99 bd 3d 53 bb 3e cb 9e a1 be
       0.0020944672 -0.074727155 0.36586943 -0.31566462
0001b0 75 a0 99 3e 96 24 20 3e 58 db 13 3f 98 85 52 3e
       0.30005231 0.15638956 0.57756567 0.20558774
0001c0 8c be 81 3d 9e ab dc bd 42 e8 69 3e f2 bc 4b 3f
       0.06335172 -0.10774921 0.22842506 0.7958518
0001d0 54 0f db be b3 54 2f bf 35 ae 22 3d 94 d2 cd bd
       -0.42785132 -0.68488616 0.039716918 -0.1004993
0001e0 8c 57 f5 be e0 ca a5 bd 04 17 c2 be eb 71 5f 3f
       -0.47918355 -0.08095336 -0.37908185 0.872832
0001f0 c2 9c b7 3e 45 d2 9b 3e d2 cb f0 bd 97 c8 43 be
       0.35861784 0.3043386 -0.11757626 -0.19119488
000200 a2 14 98 be c6 9f 1c be 39 64 99 be db dd 3f 3f
       -0.29703242 -0.15295324 -0.29959276 0.749479
000210 53 6a 2f bf d5 dc 00 3e 75 05 1b bf 54 c2 c0 bb
       -0.6852161 0.1258424 -0.605552 -0.0058825407
000220 43 2b 66 3f 03 ab cb be 92 42 11 be 5f 88 2f 3e
       0.8990976 -0.3977891 -0.14185551 0.17141865
000230 f9 21 36 bf 4b e1 24 3e a6 75 fd be ef ed 45 3e
       -0.7114559 0.16101567 -0.4950382 0.19329046
000240 f6 5e 81 3e b0 7f d6 3e ed 39 ca be f6 79 d4 be
       0.25267762 0.41894293 -0.3949732 -0.414993
000250 31 2f 84 3e 54 70 1f 3e e8 37 41 bf 7e 93 1b 3e
       0.25817254 0.15570194 -0.7547593 0.15192983
000260 04 19 62 bf 6d 08 1e 3f c5 ad 01 bd 26 5d c7 3e
       -0.8831942 0.61731607 -0.03165986 0.38938254
000270 34 a4 9b bd 4c 2d e4 3f 70 e0 22 be 90 e8 b5 3e
       -0.07599679 1.7826324 -0.15905929 0.35528994
000280 b5 b5 23 bc 75 0d b4 bd 1d 10 02 bf 48 db 1b 3f
       -0.009992053 -0.08791629 -0.50805837 0.6088147
000290 f7 3c 94 3d 1e 4f 82 3e 99 6d 0d bf e2 d8 96 3e
       0.072381906 0.25450987 -0.5524536 0.29462343
0002a0 da c3 d2 3e 5c 44 94 be 26 2d 2e 3e 06 ff d2 3f
       0.41165048 -0.28958404 0.1700941 1.6484077
0002b0 f2 db 81 3e 5a 27 22 be 6a fe 4d bf f6 01 84 be
       0.25363117 -0.15835324 -0.8046633 -0.25782746
0002c0 d3 c5 df be 79 db 79 3e bb 6e 82 3f a1 12 df bd
       -0.43705615 0.24400128 1.0190042 -0.10892225
0002d0 29 48 3a bf bb 4f ac be 59 0d 2d bf 2e a4 03 bf
       -0.7276636 -0.3365458 -0.6759849 -0.51422393
0002e0 68 68 bc be b9 23 86 be ae 52 4a be f0 a5 ef 3e
       -0.36798406 -0.2619913 -0.19758102 0.46806288
0002f0 81 3b 58 bc 3b ad 1e bf 28 ef 8a 3c 3d 6a 5c bd
       -0.013197781 -0.6198308 0.016959742 -0.053812254
000300 07 3f 40 3d 84 20 00 3f fa 6d cc be 83 bf d7 3d
       0.046935108 0.50049615 -0.39927655 0.10534575
000310 88 e1 08 bf 0f 72 95 be ae c5 80 be 12 9d b6 3e
       -0.53469133 -0.29188582 -0.25150818 0.3566671
000320 33 35 60 be fc 10 3b bd 2b e0 42 be 63 3c 19 be
       -0.21895294 -0.045670494 -0.19030826 -0.14964442
000330 41 83 26 3c 2f 09 b4 3e cc 4c c7 3e 05 94 bb 3e
       0.010163129 0.35163257 0.3892578 0.36636367
000340 92 05 88 bd ab 58 f4 3d bf ff df 3e c3 17 9a be
       -0.066416875 0.119309746 0.43749806 -0.30096254
000350 f2 de 45 3f c0 bd 2f be 57 69 d6 3e 5c 75 88 3e
       0.7729331 -0.17162228 0.41877243 0.26652038
000360 b1 85 73 3d 33 69 2d bf 96 00 35 be 73 0d 74 be
       0.05945367 -0.67738646 -0.17676005 -0.23833255
000370 e7 c8 a3 3e 92 e6 bc 3d 07 a8 d4 3e 6f 5c ea 3d
       0.31989214 0.09223665 0.41534445 0.114434116
000380 ba bd e0 3e 6e b0 e4 be bb 0a cb bc 39 e5 f9 3c
       0.4389475 -0.44665855 -0.02478539 0.03050481
000390 39 81 f6 be aa b1 ec 3d 8c 5a ca bd b7 79 d3 bd
       -0.48145464 0.11557324 -0.09880552 -0.1032595
0003a0 53 10 f8 3d 98 ef d3 3e 77 02 80 be f7 e4 ab be
       0.121124886 0.41393733 -0.2500188 -0.33573124
0003b0 19 3e ac 3d 3f 44 eb 3e 18 08 06 be a4 56 21 3c
       0.08410282 0.45950505 -0.13089025 0.009847317
0003c0 dc 0a 1f be e6 9c ef be 57 dc ab 3d 23 ac 90 3e
       -0.15531486 -0.46799392 0.08391636 0.2825633
0003d0 a8 01 a7 be e8 dd 5a bd c8 02 8c 3d 49 ad ae bd
       -0.3261845 -0.053434283 0.06836468 -0.08529145
0003e0 e2 28 24 3d 2f b7 be 3d 0a 86 81 bd e1 94 f0 bd
       0.04007805 0.09312283 -0.06324394 -0.117471464
0003f0 2c 8a 1c 3f 93 fc d6 3d 5c 58 de 3d aa e5 39 3e
       0.61148334 0.104973935 0.10856697 0.18154016

bias f4 [12]
000000 7b 29 72 3e 81 a6 b1 3d b2 5c b3 be 7f 5c 17 3f
       0.23648636 0.08674336 -0.35031658 0.5912551
000010 1b e1 ef 3d 59 9d 7c bd 8f 31 2f be 08 b8 67 3d
       0.11712857 -0.061673496 -0.17108749 0.05657199
000020 53 be 76 be c1 51 47 3f 05 4d 01 bf a0 4e 22 3e
       -0.2409604 0.7785912 -0.5050815 0.15850306

weight_ih_l0 f4 [256, 47]
000000 cc 76 8a 3f 22 fb 8b 3e ff 75 80 bf 57 c7 8f be
       1.0817504 0.27340037 -1.003601 -0.28081772
000010 f8 b3 98 be 5b 12 45 be 85 64 e3 be 70 1b 65 bf
       -0.29824805 -0.19245283 -0.44412628 -0.8949499
000020 6e 53 53 bf cf b6 9c 3f 6b e4 b2 bf af a4 73 3d
       -0.8254918 1.2243289 -1.3975958 0.059483226
000030 10 c6 bb be fe f6 a5 3e 3e b6 2f 3f 32 92 94 bf
       -0.36674547 0.32415003 0.68637455 -1.1607115
000040 e1 9d ec bf ac 47 8f bf 54 68 96 3f 47 06 7d bf
       -1.8485681 -1.1193748 1.1750588 -0.98837703
000050 70 48 09 3f c4 69 46 be 04 e2 ab 3f e5 b6 76 bf
       0.53626156 -0.19376284 1.342835 -0.96372825
000060 2e ca 8f be 0e 3f ce 3f e0 0d 83 3e c9 a8 23 3f
       -0.28083938 1.6112993 0.25596523 0.6392942
000070 a5 a7 ae 3f fb 62 99 3f f9 ca 4a bf d2 9e c4 3e
       1.3644911 1.1983331 -0.7921596 0.3840242
000080 33 ce 62 bf f6 7e 6e 3f 2c aa 88 be 79 fd 32 be
       -0.88595885 0.93162477 -0.2669233 -0.17479505
000090 18 fe 0a 3f bb 3e cc 3d 1c d9 23 bf 4d e6 b0 bd
       0.54293966 0.099729024 -0.6400316 -0.086376764
0000a0 54 a7 32 3f 37 6e 3b 3e 46 30 a6 3f 51 98 84 3e
       0.6978657 0.18303762 1.2983482 0.25897458
0000b0 24 ac 1e bd cc fb 45 be c6 d6 b1 3f 8f 9e dc bf
       -0.038738385 -0.19334334 1.3893669 -1.7235888
0000c0 cb e9 05 bf c2 7d c9 be 22 d4 9f bf b5 7e 20 3f
       -0.52309865 -0.39353758 -1.2486613 0.6269334
0000d0 c0 95 a4 3e 4e 48 70 bd dd d0 7f 3e f6 0f 55 be
       0.321455 -0.058662705 0.24982019 -0.2080687
0000e0 43 c7 30 40 d2 bb 47 bf 08 a1 25 bd dc dd df be
       2.762162 -0.78020966 -0.040436774 -0.43723953
0000f0 7c 86 f7 be 48 d7 b8 3e 0d d8 51 c0 49 f9 dc bd
       -0.4834479 0.36101747 -3.2788117 -0.10789735
000100 09 31 44 bf 03 14 63 be b7 4f 9c 3d 00 7b 57 bd
       -0.7663732 -0.22175603 0.07632392 -0.052607536
000110 c7 25 25 40 15 b7 44 3e e5 42 24 3f 1c 00 85 3d
       2.5804307 0.19210465 0.6416457 0.064941615
000120 56 b4 1e be fd 3d e7 3d d3 5e 38 c0 4f 7d de be
       -0.1549848 0.1129112 -2.8807876 -0.43454978
000130 1d 65 8e bf ba 30 41 bf 7e fb 60 bd aa 2d 65 3e
       -1.1124607 -0.75464976 -0.05492734 0.223807
000140 31 56 f8 3b 30 90 f2 bd b6 42 d7 3c df 78 e8 bc
       0.007578634 -0.11843908 0.026276927 -0.028377948
000150 41 02 a4 bd 3e ca 32 3d 5a fc 55 bd 29 51 e8 3d
       -0.080082424 0.043649904 -0.052242614 0.11343605
000160 8c 31 93 3c fb 71 2f be 00 eb 63 3d 98 3f 06 ba
       0.017967962 -0.17133324 0.055644035 -0.00051211705
000170 b5 56 82 bd 85 77 b6 3e a8 1a 66 c0 94 98 8e bf
       -0.06364194 0.3563806 -3.595377 -1.1140313
000180 b7 e3 81 3e 21 5e 23 bd dc 87 d1 be 4e c7 04 bf
       0.25369045 -0.03988469 -0.40923965 -0.51866615
000190 4d 08 97 be 6a 57 27 3e e4 e9 27 3e da dc 15 c0
       -0.2949852 0.1634194 0.16397816 -2.3416047
0001a0 92 51 32 3e 34 3e bd bf 80 1d 83 bf 62 c6 4b be
       0.17413929 -1.4784608 -1.0243378 -0.19899896
0001b0 67 55 4a 3d 3a a5 24 40 cd e3 8a 3e e4 ab 24 3f
       0.049397852 2.5725846 0.27126923 0.64324784
0001c0 a1 d2 d8 bd 73 47 ab bf 14 df 20 c0 7d 4f e1 bf
       -0.10587049 -1.338118 -2.5136156 -1.7602383
0001d0 02 70 ea be 12 a3 e0 bf 4f a3 7c bf 70 62 13 bf
       -0.4578858 -1.7549765 -0.9868669 -0.5757208
0001e0 0d 71 5d 3e 0d a4 9e 3f 8d cb f3 bf ba b1 67 bf
       0.21625157 1.2393814 -1.9046494 -0.90505564
0001f0 e4 54 3a 3f 14 14 08 c0 42 c7 d0 3e f5 d2 3b be
       0.7278578 -2.1262255 0.40777022 -0.18342192
000200 0b bd ef 3e 38 6e 85 be 46 10 c5 3d a6 94 38 3d
       0.46823916 -0.26060653 0.096222445 0.045063637
000210 b0 b6 5e bc d3 2d ed 3d 5b 32 a3 bf e5 84 9d 3e
       -0.013593361 0.11581006 -1.2749742 0.30765453
000220 c7 0b 16 bf bf 8e f0 bc 90 06 96 bc d2 94 75 bf
       -0.5861172 -0.029364942 -0.018313676 -0.95930207
000230 e7 16 e3 3e 75 36 0f be cf 05 97 bf 5d c4 15 3f
       0.4435341 -0.13985617 -1.1798648 0.5850275
000240 84 d8 99 bf 21 40 73 bf 6c 04 aa bd e7 2a a3 be
       -1.20192 -0.9501973 -0.08301625 -0.3186867
000250 23 d6 79 bf 3f b8 03 c0 c5 cb ae 3f 2c c9 88 3f
       -0.9759237 -2.0581205 1.3655936 1.0686393
000260 2a 45 fb bf 4d bd 2a bf 43 53 6c 3f ab 5d 5d 3f
       -1.9630482 -0.666951 0.9231455 0.8647105
000270 09 c8 10 3e 4b 3f 02 c0 15 33 4f bf ff 24 6a bd
       0.14138807 -2.035113 -0.8093732 -0.05716419
000280 a3 de f4 be fc 8f 99 3f 19 05 32 be d2 47 1e be
       -0.47826108 1.1997066 -0.17384757 -0.15457085
000290 1b f2 1a bf 19 2b c7 bd 1a 67 49 3f 52 13 2e 3e
       -0.60525674 -0.09725017 0.78672945 0.16999558
0002a0 67 ad cd 3f 7a 49 33 3f 46 2d 4d bf 48 85 f8 3c
       1.6068543 0.7003399 -0.80147207 0.030336991
0002b0 fe 60 71 bf 1d 5d 90 be 48 b4 5f 3d 47 79 2b 3e
       -0.94288623 -0.2819604 0.05461529 0.16745482
0002c0 67 d8 0a be 4d f9 99 3d 0b 6c 4a be 74 6d 15 be
       -0.13559113 0.075182535 -0.19767778 -0.14592534
0002d0 8d da d0 be 86 0f 03 3e 22 a8 62 3c a3 33 db bd
       -0.4079174 0.1279889 0.013834031 -0.10703208
0002e0 3a fa ba be cf 5c 20 3c 2e cb d9 3e ea d8 48 3e
       -0.36519033 0.009787752 0.42537826 0.19613996
0002f0 9e 02 fd be 85 74 db bd b1 b7 80 3e 6a ab 20 be
       -0.4941606 -0.10715584 0.25140145 -0.1569039
000300 79 59 b4 3f de 07 00 3f 19 9e f4 3d 63 51 68 3c
       1.4089805 0.50012004 0.11944217 0.01417956
000310 5e 58 b3 3e f5 5a 32 c0 2b f7 da 3d 52 80 a3 be
       0.35028356 -2.7868016 0.10691675 -0.31933838
000320 30 ad 2a bf aa 19 06 3f 91 10 0c bf 93 4c 73 40
       -0.66670513 0.5238291 -0.5471278 3.8015487
000330 43 89 13 3f 46 f0 89 be 89 84 5d be 98 6f 4a be
       0.5763132 -0.26941127 -0.2163259 -0.19769132
000340 18 69 82 3e 65 14 aa bd 8d 97 ca be 54 51 12 bf
       0.25470805 -0.08304671 -0.3956875 -0.57155347
000350 bc 28 2b bf 31 b4 23 3c a4 e6 81 3e 92 9c bb bf
       -0.6685903 0.009991691 0.25371277 -1.4657156
000360 11 62 8d be 87 35 b9 3d d2 d9 38 3f f1 0f 1b be
       -0.2761388 0.09043413 0.7220737 -0.151428
000370 e1 46 b1 bd 79 87 44 3e 98 01 c8 3d cf d0 c1 bd
       -0.08656097 0.19192304 0.09765929 -0.09463655
000380 50 74 ec 3d bf 5e 8f bd 2b cc 8a bc db 1f 6d 3d
       0.11545622 -0.07000493 -0.016943058 0.057891708
000390 b7 89 54 be 25 da 1a 3e 9d 5a f0 bd 8a b7 eb bb
       -0.20755659 0.15122278 -0.11736033 -0.0071935104
0003a0 29 94 8b 3c fb 9a ac bd f4 a7 b0 be d9 9e ef be
       0.017038422 -0.08427998 -0.34503138 -0.4680088
0003b0 df 83 a3 bf 1d 12 b6 3f 85 1c 48 40 38 5e e1 3f
       -1.2774619 1.4224278 3.1267407 1.7606878
0003c0 4e 01 60 3c 96 68 8d be c7 04 c0 3b 94 4e 92 3f
       0.013672186 -0.27618855 0.0058599445 1.143023
0003d0 aa 43 0b 3d 77 c5 5d bf 63 06 6b 3f ea d3 fd 3e
       0.034000076 -0.8662943 0.9180662 0.4957574
0003e0 26 a5 d8 3e ee b2 5f bf 48 e1 0a bf d5 e6 b5 bf
       0.42313498 -0.873824 -0.5425 -1.4211069
0003f0 04 3e 2b 3f 32 02 95 3e 3e fa 4d bf 91 2d cf 3d
       0.66891503 0.29103237 -0.80459964 0.10116113

weight_hh_l0 f4 [256, 64]
000000 03 b5 41 3f 01 5c c1 3e c0 32 11 40 c6 79 d3 3e
       0.75666827 0.37765506 2.2687225 0.41303843
000010 cf 1d 23 3f e0 ec 78 be 42 f8 ae bf fb a6 e4 3e
       0.6371736 -0.2430911 -1.3669512 0.44658646
000020 f8 bd c1 3f 94 54 2a 3e 42 98 88 3e 33 da 62 bf
       1.5136099 0.16633826 0.26678663 -0.88614196
000030 14 93 75 bf cb b8 5b 3f b4 9f 07 c0 44 26 64 bf
       -0.9592755 0.85828847 -2.1191225 -0.8912089
000040 7e 34 6d 3f 41 24 18 40 ba b3 58 bf 0e f6 be 3f
       0.9265822 2.3772128 -0.8464924 1.491884
000050 81 fa 7e 3f ab a5 5e 3e cb 14 ad be b3 f3 cf 3f
       0.9960099 0.21742885 -0.33804926 1.6246246
000060 db 37 fa 3f 7f 0e 91 3d 8f 93 0e c0 1f 33 1e bf
       1.9548296 0.07082843 -2.2277563 -0.61796755
000070 47 bf 68 be f3 89 27 3e a8 5c 6e 3f 71 42 02 3f
       -0.22729217 0.16361217 0.9311013 0.5088263
000080 7a 80 a6 bf 0d a9 3f bf cb 61 06 bf f3 c8 a6 bf
       -1.3007958 -0.74867326 -0.5249297 -1.3030075
000090 83 79 26 be 19 70 4a bf cc 2f bd 3f ca ab f4 be
       -0.1625729 -0.790773 1.4780211 -0.47787315
0000a0 b4 d8 56 3f 67 1d fd bc 38 a7 a2 be 6a 13 99 bf
       0.8392441 -0.03089781 -0.31768203 -1.195905
0000b0 94 34 93 3f 41 f1 6b be cd f4 5c bf 20 02 2c 3e
       1.150042 -0.2304125 -0.86311036 0.16797686
0000c0 95 2e a7 bf f8 41 84 3e 18 4f 16 40 4e 84 fb bf
       -1.3061091 0.2583158 2.3485775 -1.9649751
0000d0 bc b8 d3 3e 28 6f 55 bf 1e 5f 12 40 80 a0 07 c0
       0.4135188 -0.83372736 2.2870555 -2.1191711
0000e0 46 fc 7e 3e dc ec 28 bf b5 43 a5 bf 8d d6 a6 bf
       0.24900922 -0.6598642 -1.2911288 -1.3034226
0000f0 2a 3b 4a 40 53 76 04 bf c6 49 2c 3f a0 8d 87 3e
       3.159861 -0.5174305 0.6730007 0.2647524
000100 61 90 91 bf ef 28 4a be fc 0b 99 be 03 1a 61 bf
       -1.1372186 -0.19742177 -0.29891956 -0.87930316
000110 c8 0c 3e 3f ca 1c 88 3e f7 43 06 be cb 39 07 3f
       0.7423825 0.26584464 -0.13111864 0.5282256
000120 89 a5 11 3f 8c 2d ec be 37 e7 ba 3e 86 0d cb be
       0.5689321 -0.461285 0.36504528 -0.39658755
000130 5d 5f d8 3e 26 6d fb 3e 24 da 1b 3f 38 e8 28 3f
       0.42260256 0.4910671 0.6087973 0.6597934
000140 ca 1d 0f be 63 9e b3 be 24 73 8b be 93 49 2d bf
       -0.13976207 -0.35081777 -0.27236283 -0.6769039
000150 a3 74 df be 81 37 e1 3e 53 aa 16 3e 65 1b a7 be
       -0.43643674 0.4398766 0.14713411 -0.32638088
000160 7f 96 d3 3e 78 3c 1d 3f d4 d6 8e bd 39 98 5a 3d
       0.41325757 0.61420393 -0.06974569 0.053367827
000170 cb f8 bf 3e 3b ab 59 bf 59 4e 06 c0 ed f0 04 3e
       0.374945 -0.850269 -2.098532 0.12982531
000180 10 ed ab bf 1d 38 ea be 04 e3 dc be 6a 51 74 bf
       -1.3431721 -0.45745936 -0.4314195 -0.9543673
000190 ae cf 27 bf 7b 49 f5 be 01 78 d1 3f 92 86 16 3c
       -0.6555127 -0.47907624 1.6364747 0.0091873575
0001a0 c2 f6 1d 3f 51 42 35 be 18 8d 13 3f 23 e7 37 bd
       0.6170465 -0.17701079 0.57637167 -0.044898164
0001b0 57 cc 04 3f 01 6e 0a bf bc d8 17 bf 19 6f db 3d
       0.518743 -0.540741 -0.59315085 0.107145496
0001c0 75 c4 ad 3e 43 87 1a bd f3 a8 b2 be be 4c 9f 3f
       0.33938947 -0.037726652 -0.34894523 1.2445295
0001d0 b9 d0 f3 bd 30 10 57 bf 29 72 fd 3e 51 2d e6 3d
       -0.11905045 -0.84009075 0.4950116 0.11239112
0001e0 c4 c8 3d bf ce de 44 bf 72 0d 3b bf 96 85 37 3f
       -0.7413447 -0.7690247 -0.7306739 0.7168821
0001f0 50 33 c1 3c 04 6d 01 3e 18 23 91 be e5 eb 58 bd
       0.023584038 0.12639242 -0.28347087 -0.05295934
000200 40 87 a2 3e 60 2f 0d c0 8f 29 4e 3f 71 ce 10 c0
       0.31743813 -2.2060165 0.80532163 -2.2626002
000210 16 39 b5 3f 78 1b 4f bf 28 b4 3d 3f e1 70 a0 bf
       1.4158046 -0.8090129 0.7410302 -1.2534448
000220 87 ed c9 be b5 7c 35 bf 51 b4 59 be 1a ce b8 be
       -0.3943903 -0.7089341 -0.21260192 -0.36094743
000230 b9 87 82 3f 90 d5 36 bf 58 50 78 bf fa c9 13 3e
       1.0197669 -0.7141962 -0.96997595 0.14432517
000240 43 d3 a8 be b4 30 a4 bf 18 f3 ea bd fd de 61 be
       -0.3297368 -1.2827363 -0.11472148 -0.2205772
000250 10 84 74 3e 21 0a a9 be 83 e8 b9 3f 76 c7 3e 3f
       0.23878503 -0.3301554 1.4524082 0.74523103
000260 22 b0 4b bf b0 1c 33 be 5e 95 9f 3f c6 cb f2 bd
       -0.7956563 -0.17491412 1.2467458 -0.11855273
000270 66 89 9b 39 6f 6b 88 3f d5 4d b0 3e 6f d4 dc bd
       0.00029666274 1.0657786 0.3443438 -0.10782706
000280 1f c0 bd bd 52 6d 0f bd e8 1a a1 3f d8 4a 09 3f
       -0.0926516 -0.035016365 1.2586336 0.5362983
000290 1d 9d 93 bc 8d a1 b0 3e 89 39 16 bf 6c 72 58 bf
       -0.018019253 0.34498253 -0.5868154 -0.84549594
0002a0 92 78 84 be 28 ea ab 3a 47 07 bf 3d 0a bd 2e bf
       -0.25873238 0.0013116049 0.0932756 -0.682572
0002b0 7c d6 e5 3d 7f 38 93 bd a8 4d d8 bd 18 7c 7d bf
       0.1122255 -0.0718851 -0.10561687 -0.9901748
0002c0 1e 27 94 bf 65 16 eb 3e ea 62 b1 bf 5e 1f 64 3f
       -1.1574438 0.45915523 -1.3858311 0.8911036
0002d0 a2 78 95 bf 3b 22 85 be 19 a9 95 bf f3 2b b9 be
       -1.1677439 -0.26002678 -1.169223 -0.36166343
0002e0 c0 75 7a bf 46 b7 b0 3f e8 ca 0d c0 9b 87 48 3f
       -0.9783592 1.3805931 -2.2155094 0.7833192
0002f0 84 a0 44 bf b9 7c c5 3e 83 01 a3 bf c5 bb 17 3e
       -0.7680743 0.38571718 -1.2734836 0.14817722
000300 c7 89 20 3f 1e 18 30 3e c5 6a 99 3d a5 98 29 3f
       0.6271023 0.171967 0.07491068 0.6624854
000310 64 2a 32 be 92 86 07 be 9f 50 6d 3e a4 66 d9 bc
       -0.17398983 -0.13234928 0.23175286 -0.0265382
000320 11 2f ab 3f fe 61 93 3e 67 6a ad bf 69 54 08 3f
       1.3373739 0.287857 -1.3548096 0.532538
000330 02 c2 51 bf c7 97 44 bf e1 d4 da bf d3 b9 85 3f
       -0.8193666 -0.76794094 -1.7096215 1.0447334
000340 7a ee be be aa b9 e7 be 42 49 09 40 06 b6 50 bf
       -0.37291318 -0.45258838 2.1450963 -0.81527746
000350 9d ec 0c 40 16 bb 00 bf 49 86 32 3f 43 b2 f2 3e
       2.2019417 -0.5028547 0.6973615 0.47401628
000360 97 68 8e 3e 8a fa 7f 3e 8d cf db 3d ad a1 32 3f
       0.2781417 0.24997917 0.107329465 0.6977795
000370 d0 52 89 3d 2b 8e 31 bf a4 65 89 3e 44 20 97 3e
       0.06705248 -0.69357556 0.26835358 0.29516804
000380 09 7b e3 be f1 fa bf be 77 e1 68 3f e0 7a 5d 3f
       -0.44429806 -0.3749614 0.9096903 0.8651562
000390 c4 18 59 be 5a c6 01 bf 28 f1 cc bf 2c 89 4d bf
       -0.21200854 -0.50693285 -1.6011095 -0.8028743
0003a0 e6 cc 1e bf e3 5a 3a bd e9 8f 46 3f 72 ea 3c bf
       -0.620314 -0.045496833 0.7756334 -0.73795235
0003b0 b0 c8 ed 3d a4 02 c7 bd 55 8e 22 be 31 43 91 bf
       0.11610544 -0.097173005 -0.15874608 -1.134863
0003c0 e9 0c d5 3f 5c 3b 3a bf 52 e0 a5 bf 14 aa 8d 3f
       1.6644565 -0.72746825 -1.2959082 1.1067529
0003d0 bf 5c 83 bf 8c 9d 19 be 8c ac 4d bf 38 31 e8 bf
       -1.0262679 -0.15001506 -0.8034141 -1.814002
0003e0 54 78 02 3f 7c 3c 69 3f de 92 00 3f 36 a5 7d 3f
       0.50964856 0.91107917 0.502241 0.99080217
0003f0 5a 61 19 3f 94 89 8a be 74 ef c8 3e 92 3c 3b 3f
       0.5991417 -0.2705809 0.39245188 0.731393

bias_ih_l0 f4 [256]
000000 50 e1 74 3e 20 52 88 be 76 0d e5 3e 6e 5d c8 3d
       0.23914075 -0.26625156 0.44736832 0.09783445
000010 e6 7e 16 bf f4 7a 35 be 4b eb 53 be 01 f9 25 3f
       -0.5878738 -0.17722684 -0.20695226 0.64833075
000020 0c 78 1f bf 1e 7e f5 be 24 2a ad be fc dc 0e 3e
       -0.6229255 -0.47947782 -0.33821213 0.13951486
000030 66 bb 14 be a9 88 6d 3e 67 d8 35 bf cd 02 33 bf
       -0.14524612 0.23196663 -0.7103333 -0.6992615
000040 65 22 46 3f 02 cd 8e be bc 97 c0 be 32 03 c2 be
       0.7739623 -0.27890784 -0.37615764 -0.37893063
000050 63 0a b3 be 76 ed af bd 20 ec 82 3c 2b 2e 70 be
       -0.34968862 -0.08590214 0.015981734 -0.23455112
000060 c6 96 b0 3e dd f2 f9 bd 81 39 92 be 8d e1 77 be
       0.3449003 -0.122045256 -0.28559497 -0.24207135
000070 af 53 3b 3f e8 18 06 bf 38 a8 39 3e 0c 8c ac be
       0.73174566 -0.52381754 0.18130577 -0.33700597
000080 12 f2 1e be 0e 48 bf be 72 52 45 bf b8 70 7c be
       -0.1552203 -0.3735966 -0.77078927 -0.24652374
000090 c5 a8 96 3d 82 ec d1 be 8c eb dd be f9 64 43 3f
       0.07356409 -0.41000754 -0.4334377 0.7632595
0000a0 09 36 f1 bd b1 9d 86 be 13 13 1f 3f e9 a9 a0 be
       -0.117778845 -0.26292184 0.6213848 -0.3137963
0000b0 72 64 de 3e 82 42 b3 3e 86 22 a0 be 45 42 a0 be
       0.4343601 0.3501168 -0.3127634 -0.3130056
0000c0 eb f9 72 be f1 4a 0b bf bf fd 95 3e 76 b1 88 be
       -0.23728149 -0.54411227 0.29295155 -0.26697892
0000d0 f8 1c 7a be c3 0d 01 3e a4 5b aa 3f d3 48 40 3e
       -0.24425113 0.12602906 1.3309216 0.1877778
0000e0 8e ba ca 3e cb 64 c0 be a5 64 cc 3d 41 48 c9 be
       0.39595455 -0.375769 0.09980134 -0.39312938
0000f0 68 b0 cd bd 76 64 50 3f 9c a4 f1 be 68 ea 1b 3f
       -0.100434124 0.8140329 -0.471959 0.6090455
000100 2f 15 54 be 89 fb 0b be 28 6f a0 3e ee 2a 4e be
       -0.20711206 -0.13670172 0.31334805 -0.20133564
000110 76 f1 04 be 49 40 15 3d de 2b e8 be e4 75 2e 3f
       -0.12982735 0.03643826 -0.45345968 0.68148637
000120 49 f5 66 bf c1 a8 26 bf 7d 42 07 bf ff c5 84 bd
       -0.90218025 -0.6510125 -0.5283583 -0.06483077
000130 be 85 f2 3d 7c d2 f1 be a2 b6 eb be 15 94 78 bf
       0.118419155 -0.472309 -0.46037775 -0.97100955
000140 79 56 4b bf e6 d1 31 bf 1b 27 cb be f5 87 7e 3d
       -0.7942882 -0.69460905 -0.39678273 0.062141377
000150 4b 89 96 bf c7 44 93 3d 9a 53 8c bf 9c 39 1f bf
       -1.1760648 0.071908526 -1.0963013 -0.6219728
000160 6d f2 c0 bb d4 78 ba be 61 dc cd be 65 e8 a9 bf
       -0.0058882744 -0.3642031 -0.40207198 -1.3274046
000170 3d 69 68 bf 22 2f 7c be 19 dc 82 bf f3 32 80 bf
       -0.9078558 -0.24627355 -1.0223418 -1.0015548
000180 71 cb 1f bf 62 c1 18 be f3 d2 3d be 97 1d c4 3d
       -0.624198 -0.1491752 -0.18537502 0.09575956
000190 c5 8f 0b bf 78 57 a6 bf c3 9b df bc 43 da d3 be
       -0.5451625 -1.2995443 -0.027295953 -0.41377458
0001a0 35 79 ff be a7 14 15 bf 32 de 04 3e 0f 0a 89 3e
       -0.4989716 -0.5823464 0.12975386 0.26765487
0001b0 6d b5 41 3f b7 d8 3e 3e 38 d9 a4 be 85 78 1d bf
       0.7566746 0.18637358 -0.32196975 -0.61512023
0001c0 6c fe c6 3e d1 77 11 3e 0d 75 b3 be 84 7c c6 be
       0.38865983 0.14205863 -0.3505024 -0.38766873
0001d0 c0 8f 8e be 7a e3 96 bd 7d 25 a6 bf 44 bc 02 3e
       -0.27844048 -0.073676065 -1.298019 0.1276713
0001e0 6b 66 9d be cc 6f 0e bf 3e e2 eb bd 74 ee 02 3f
       -0.307422 -0.5563934 -0.11517762 0.511451
0001f0 f9 80 63 be 7f 21 11 3f d6 ec 07 bf 3a 4e 81 bb
       -0.22217168 0.56691736 -0.5309576 -0.003946093
000200 f6 ea 61 3e ab 8b 22 be a0 df a8 3f 00 1b 62 3f
       0.22062287 -0.15873592 1.3193245 0.8832245
000210 46 d3 e9 bd b3 e7 73 bd 7f 3e ac be 79 e8 98 be
       -0.1141725 -0.059547137 -0.3364143 -0.29864863
000220 76 ff 9d 3f b3 12 a6 3e 52 cd 3a be ff be eb bd
       1.2343585 0.3243614 -0.18242386 -0.11511039
000230 58 0b 3c 3e 1c d2 e9 be d1 01 96 be c9 0e 3c 3f
       0.18363702 -0.45668113 -0.2929826 0.7346006
000240 e8 72 ff be e1 64 0d bd fa a2 27 bd e2 fd 0f be
       -0.49892354 -0.034520034 -0.04092691 -0.14061692
000250 7d 52 9d 3e 77 3b d1 3e 37 3f 35 3e 22 63 f6 3c
       0.30726996 0.4086568 0.17699896 0.030076567
000260 0f 2c 50 bb f4 db 73 bf cf a4 8b 3e 59 e3 11 bd
       -0.0031764542 -0.95257497 0.27274176 -0.035617206
000270 cd dd ac 3e aa 66 8e be 77 97 d4 3f c6 2d bd bd
       0.3376297 -0.278127 1.6608723 -0.09237246
000280 50 bb d0 3d f1 80 aa be ab 8b 94 3e 41 d8 08 3e
       0.10191977 -0.333015 0.29012808 0.13363744
000290 15 41 92 3e 57 f6 97 3d a8 ec 3b be 34 ab a8 3c
       0.2856528 0.074200325 -0.18351996 0.020589449
0002a0 ea b4 6f 3f 7e a0 e0 be ef 81 50 3f 0e ff 7f be
       0.9363543 -0.43872446 0.8144826 -0.2499964
0002b0 6e 4a ad 3f 30 c2 42 3f ba 28 ad 3d aa ce 78 bd
       1.3538339 0.76077557 0.084550336 -0.060743965
0002c0 12 b5 3f be 65 24 c9 bb 95 04 f3 3e bb 5a d3 bd
       -0.18721417 -0.006138372 0.47464433 -0.1032004
0002d0 19 8b e7 3d be 64 9a be e4 72 20 bf ac d9 1c 3f
       0.11305828 -0.30154985 -0.6267531 0.6126964
0002e0 9a 24 99 3e d2 4c cd 3c 02 d8 df be 0c 9d fb bc
       0.29910737 0.025061045 -0.43719488 -0.030714534
0002f0 42 3a ea 3d 7a 3f b3 3f 88 a1 44 3e 73 db 6a bf
       0.11436893 1.4003747 0.19202244 -0.917411
000300 8d 92 54 bf 8e d5 0b 3e 23 aa 99 be 71 4c 93 be
       -0.8303612 0.13655683 -0.30012617 -0.28769258
000310 70 d0 80 be 4d cb 75 bd f3 9e d2 be 53 f1 ba 3e
       -0.25159025 -0.060008336 -0.41136894 0.3651224
000320 e1 16 fb bd e0 cf 6d be 3b 39 b6 3d 16 26 a5 3d
       -0.12260223 -0.2322383 0.088976346 0.08063905
000330 3c 8b 26 be 9e 2e ca 3d 91 d7 11 bf 35 18 fc be
       -0.16264051 0.09872173 -0.56969553 -0.49237218
000340 72 cf 71 3e 29 ef 79 be 2d 6f 1b be a3 6b a0 3d
       0.2361429 -0.24407639 -0.15179129 0.0783303
000350 21 d2 24 3e 42 bf d4 3d b9 0f ad bd 6a b1 11 3d
       0.16095783 0.10388042 -0.084502645 0.035569586
000360 96 49 ed bc d1 69 81 3e 0e aa a5 be 2e 10 11 3c
       -0.028965753 0.25276044 -0.32356304 0.008853955
000370 4b e6 44 be c6 e6 57 be aa d1 56 3d d9 4b 9f be
       -0.19228475 -0.21084127 0.052446045 -0.31112555
000380 47 08 8e be c3 f4 0a be a6 6d 92 3f 65 ed 8d bd
       -0.2774069 -0.13569932 1.1439712 -0.06930045
000390 73 eb 1e 3e b4 63 bc be 9c a6 f6 be 92 7b dc bc
       0.15519504 -0.36794817 -0.48173988 -0.026914392
0003a0 31 64 81 3c bb 02 65 3d 1c 70 00 3f 6b 47 e1 3d
       0.015794845 0.055910807 0.50171065 0.1099995
0003b0 84 63 1d 3e e1 05 e7 bd 38 1f 0e bf 4a 72 1f be
       0.15369993 -0.11280418 -0.55516386 -0.15570942
0003c0 2a 87 c5 be 87 8f 8b 3e 82 ca eb be 28 83 34 be
       -0.38579684 0.2725794 -0.4605294 -0.17628157
0003d0 e8 86 26 be be b0 75 bd 91 d3 08 bf 5c 5e b9 be
       -0.162624 -0.059983008 -0.53447825 -0.36204803
0003e0 9c 7c 37 3e 11 34 1b 3d a0 5f 62 3f 02 49 c3 3e
       0.17918628 0.03789145 0.8842716 0.38141638
0003f0 f1 a2 23 3d 60 29 1a 3f 79 46 dd be 20 94 18 be
       0.039950315 0.60219383 -0.4321783 -0.14900255

bias_hh_l0 f4 [256]
000000 f1 23 3b 3e 32 c6 86 be e5 5d e8 3e bf 92 54 3d
       0.1827543 -0.26323086 0.45384136 0.05189776
000010 20 cb 29 bf 9d 19 79 bd 4a be 02 be 0a d9 44 3f
       -0.6632557 -0.060815442 -0.12767902 0.76893675
000020 8e 11 2d bf 5a 60 07 bf e6 71 5b be 58 78 00 3e
       -0.6760491 -0.52881396 -0.21430168 0.12545907
000030 50 55 b4 bd 7d 28 1c 3e 13 08 12 bf 33 5d 24 bf
       -0.088053346 0.1524982 -0.5704357 -0.6420471
000040 5f 15 39 3f d2 8b 19 be d2 32 dd be 5d cd cb be
       0.72298235 -0.14994743 -0.43202835 -0.39805117
000050 d7 97 88 be 75 31 bf bd 6b 3c 8f 3d ec 02 52 be
       -0.26678345 -0.09335605 0.06993946 -0.20508927
000060 a1 d5 d6 3e 1d a0 2f be 20 d8 b3 be ab 91 80 be
       0.4195986 -0.17150922 -0.35125828 -0.25111136
000070 3c c2 4b 3f f3 85 e2 be 53 f9 d8 3c d6 4e b6 be
       0.79593253 -0.4424282 0.026486075 -0.35607022
000080 6f 88 88 be 31 ba 34 be b2 18 3b bf 20 06 d1 bd
       -0.2666659 -0.17649151 -0.7308456 -0.102062464
000090 df bd 2c 3c f1 9c 10 bf d3 7a d7 be 49 cd 26 3f
       0.010543316 -0.56489474 -0.42085895 0.6515699
0000a0 97 0e 31 bc 56 18 ab bd 83 b6 dd 3e 29 5d c2 be
       -0.010806701 -0.08354251 0.43303308 -0.379617
0000b0 ac e9 e4 3e a9 6b 62 3e 9e fc b8 be ff 85 b6 be
       0.44709527 0.22111382 -0.36130232 -0.35649106
0000c0 d2 1a b8 be b6 15 f5 be db 86 e6 3e 79 4f c0 be
       -0.35957962 -0.47868127 0.45024762 -0.37560633
0000d0 26 51 8e be a4 73 27 3e ef 24 b1 3f 33 42 ab 3e
       -0.27796286 0.16352707 1.3839396 0.33448943
0000e0 48 21 88 3e 4a a6 ef be bc 32 30 bd 8a 50 03 bf
       0.26587892 -0.46806556 -0.043017134 -0.5129477
0000f0 22 d4 0a be 4f fe 50 3f 89 1a c0 be de 9e 1b 3f
       -0.13557485 0.81638044 -0.37520245 0.6078929
000100 d8 b4 a1 be c9 77 b8 bd 84 af ba 3e 1b 90 8a be
       -0.31583285 -0.09007222 0.36462033 -0.2706307
000110 a3 f0 93 3d db ac 89 3e d7 ab f7 be 79 90 01 3f
       0.07223632 0.2688969 -0.4837329 0.5061107
000120 3f 43 46 bf 1b 8d 14 bf f9 35 a2 be 40 58 fb bc
       -0.7744636 -0.5802781 -0.31681803 -0.03068173
000130 69 80 ad bd 36 89 31 bf b3 0a 95 be bb 2e 85 bf
       -0.08471758 -0.6934999 -0.29109725 -1.0404886
000140 4b e0 64 bf a3 f1 34 bf 93 2c d3 be c0 5c c8 3c
       -0.89404744 -0.7068121 -0.41244945 0.02445829
000150 4a 79 9c bf d9 1e 0a 3c 74 06 81 bf 07 46 f7 be
       -1.2224514 0.008430206 -1.0080094 -0.48295614
000160 15 a1 0f 3e eb 89 a2 be 68 0f ee be 11 7d a9 bf
       0.14026292 -0.31745848 -0.4649613 -1.3241292
000170 33 6b 56 bf f8 63 7f be 3c 71 79 bf 39 22 45 bf
       -0.83757323 -0.24940479 -0.97438407 -0.77005345
000180 68 08 2b bf ce 93 8f be 73 69 23 be 72 93 61 bd
       -0.668097 -0.28042454 -0.15958194 -0.055072255
000190 c5 6e db be c2 a5 a9 bf 88 a3 1d be 7f fb a2 be
       -0.42857948 -1.325371 -0.15394413 -0.318325
0001a0 91 00 ce be 87 03 04 bf b1 9a f4 3d 3a 74 cd 3e
       -0.40234807 -0.5156788 0.119435675 0.40127736
0001b0 e4 9d 49 3f ba 63 7f 3e 7e 71 88 be dd 90 41 bf
       0.78756547 0.24940386 -0.26649088 -0.7561167
0001c0 83 8a c9 3e d2 58 b5 3b f5 3c d0 be 3b 13 db be
       0.3936349 0.00553427 -0.40671507 -0.4278811
0001d0 e9 cd ae be 2a ce 77 bd ae b1 91 bf b3 e9 c6 bd
       -0.34141472 -0.060499348 -1.1382349 -0.09712543
0001e0 cc a4 87 be 16 fc f7 be 70 3b f1 3d 0d ab e1 3e
       -0.26492918 -0.48434514 0.11778915 0.44075814
0001f0 16 45 5e be 7c c8 13 3f d9 7c fc be b3 fb 14 bd
       -0.21706042 0.5772779 -0.49314 -0.03637285
000200 bb 57 86 3e 88 5f 6b 3d 31 c2 a3 3f b2 d1 5b 3f
       0.26238808 0.057464153 1.2793638 0.85866845
000210 d1 7e b0 3d 50 fb 84 be 35 2f 89 be 1b bf 35 be
       0.08617938 -0.25972986 -0.2679383 -0.17748682
000220 5c e2 86 3f b0 29 2a 3e 65 30 04 be ec 6f 6c be
       1.0537829 0.16617465 -0.12909086 -0.2308957
000230 6d f1 b5 3e 3b 61 12 bf db 54 d2 be 23 a9 07 3f
       0.35535756 -0.5717961 -0.41080365 0.5299246
000240 96 d7 e5 be 63 cc 49 3d 16 3a 4f 3d ea bb 47 be
       -0.44891042 0.049267184 0.050592504 -0.19505277
000250 05 27 b7 3e 4a 0c b1 3e 49 a9 a7 3e c9 91 d4 3d
       0.35771957 0.34579688 0.32746342 0.10379369
000260 66 33 32 39 21 fb 8b bf 0f 15 ab 3d be 47 d3 bc
       0.0001699455 -1.0936013 0.08353626 -0.025791045
000270 29 ae e8 3e 9f 6d 77 be 23 aa c6 3f 04 1a 3b be
       0.45445374 -0.24162911 1.5520672 -0.18271643
000280 8d 9d b6 bd 3d fc b1 be 2e 9d 81 3e 48 66 30 bd
       -0.08916769 -0.34762755 0.2531523 -0.043066293
000290 8f 8f 28 3e d3 9f 50 3d fb 4c 69 be 65 91 53 bc
       0.16461013 0.05093367 -0.22783272 -0.012913083
0002a0 b1 91 4f 3f 2c 5d d9 be 44 6a 6d 3f cb 4f 84 be
       0.8108168 -0.42453897 0.92740273 -0.25842127
0002b0 a3 a4 af 3f bf 86 3f 3f f3 ec af 3d 1a 8a a0 bd
       1.3722118 0.7481498 0.08590116 -0.07838841
0002c0 c0 a7 ff bd c2 d0 3d bd 00 fe cf 3e 30 6e 55 be
       -0.12483168 -0.046341665 0.40623474 -0.20842814
0002d0 e5 28 e7 3d 35 6f ff bd 3b fa 43 bf 51 83 18 3f
       0.11287097 -0.12472383 -0.76553696 0.5957537
0002e0 ad 8c d2 3e 77 10 2a 3d 92 1c 9e be 45 08 ae 3d
       0.41122952 0.04151961 -0.30881172 0.08497671
0002f0 f5 54 68 3e 7e 8b 98 3f 3b b4 db 3d 15 51 40 bf
       0.22688659 1.191757 0.107277356 -0.7512372
000300 a2 cf 2d bf 9c ce 36 3e a4 e0 7e be 97 96 8d be
       -0.6789495 0.17852253 -0.24890381 -0.27653953
000310 10 63 3d be d1 43 6e bd cc a3 9f be a4 04 ab 3e
       -0.1849482 -0.058170144 -0.31179655 0.33401978
000320 a3 95 25 be c5 af 5e be ca 6b 2e 3e 9d 43 cf 3d
       -0.16170363 -0.21746738 0.17033306 0.10120318
000330 48 97 fc 3b 14 fe fd bc 8c 1f f2 be d6 29 19 bf
       0.007708464 -0.031004943 -0.47289693 -0.5982946
000340 e0 c8 57 3e a3 b1 7d be 83 20 95 bc 17 0a 8e 3e
       0.21072721 -0.24774794 -0.01820398 0.27742073
000350 98 b9 bb 3e 87 12 d7 bc 34 64 00 be 10 b1 0d be
       0.36665034 -0.026253952 -0.12538224 -0.13837075
000360 9f 08 82 bd 2d 57 b8 3d 22 ee db be bd 6a 5f bd
       -0.063493006 0.090010025 -0.42955118 -0.054545153
000370 14 90 7e be c4 21 57 be cb 93 0e ba 5a 06 bb be
       -0.24859649 -0.21008974 -0.0005438893 -0.36528283
000380 a3 ac b2 bd e9 03 49 be e9 1d 85 3f ea 6c 3a 3d
       -0.08724334 -0.19630398 1.0399753 0.045514025
000390 7a bc 28 3e e1 bd ab be 28 ea 87 be 8b aa 39 bd
       0.16478148 -0.33543304 -0.26545835 -0.045328658
0003a0 64 d9 08 3c 19 1d 3e 3d ee ad 96 3e 14 5c a9 3d
       0.008352611 0.04641447 0.29429573 0.08269516
0003b0 48 15 21 3e d0 3e 9f 3c 31 4d da be 8f 3e 15 bd
       0.15730774 0.019439131 -0.42637017 -0.036436614
0003c0 50 ca d7 be 24 f2 48 3e 05 4e 8d be cd a3 75 be
       -0.4214654 0.1962362 -0.27598587 -0.23988266
0003d0 d9 ef 42 be 67 d7 12 3d e9 2d 05 bf b4 e2 c5 be
       -0.19036807 0.035849955 -0.5202318 -0.38649523
0003e0 ac c8 5b 3d c6 a5 2b bd 0c 6a 4a 3f 78 5e 83 3e
       0.053658172 -0.04190614 0.79068065 0.2565801
0003f0 02 dc 03 3d 6f d7 28 3f d3 3d d6 be 03 03 f4 bd
       0.032192238 0.65953726 -0.41844043 -0.11914637
